checkpoint_ddqn.pth (torch_old, 28463 bytes, 6 tensors)

fc1.weight f4 [64, 37]
00000000: 7248 dfbd 8eb8 453e 0721 87bd 9abf 4f3d
00000010: 02f4 a73e dbe0 fe3d e21c 1cbd e4d6 fa3d
00000020: 0e8c c1bc a091 ed3c 5739 82bd f4ab cbbc
00000030: f5c5 a1bc 482e acbd ea79 d9bd 946b 563a
00000040: fb10 233d 2b15 3b3e 0e63 6e3c 2855 323d
00000050: 8178 0c3e 0e91 2f3e d3e1 df3d f57b be39
00000060: fbd8 6d3e 04e9 0ebe e705 a33e 2ce5 3f3d
00000070: cf68 12bd c534 2e3e a4ee de3c f188 f63d
00000080: d5d6 85bc 9668 2fbe 2749 91be 376a 4bbe
00000090: fb8a 46bd 1958 e33d dc6d 1e3e dcc6 c03c
000000a0: 60a0 9e3d 31ab 1d3b 5829 123c dcc5 3cbe
000000b0: 03c7 85bd 13c0 9ebb 0a9c 363e 6269 79bd
000000c0: b89b adbd dd3b 483d 98ee 6f3e 99d3 5b3e
000000d0: 31c5 ce3d 9e36 603d 4b1d 5c3d 105d 64bd
000000e0: e53a abbe 8daa ab3c f26d 8fbe 1611 91bd
000000f0: 158f d73b 090a 733e d02f 22bb bdc3 84bd
00000100: 7422 7f3d 1f28 7abd 38a2 9cbd 81b7 dbbc
00000110: c287 0b3e 3c1b 663e d7ae 3c3b 0c24 1e3e
00000120: e265 b23c 3869 d5b8 7182 22bd edcd a03e
00000130: 80fd 51be fb9f 53be 61d9 acbc 2282 0cbf
00000140: c03c 2abe e138 823e d362 673d b2c4 0cbe
00000150: e150 0cbd d1b9 373d 5e14 83bb 9ebb 80be
00000160: f61c 4a3d 0d2a 0fbe b3ab 19bd 4746 043e
00000170: 96b9 de3d ab36 0bbc 9c70 c2bd e6cc 053e
00000180: 243f e3bc 4259 0fbf 113b 6abc 5b6c 05bf
00000190: b4d4 efbc e0e4 3f3e 491f 923c 456a adbe
000001a0: 1a4c 80be b746 233e 8843 16be 94f4 27bf
000001b0: fe74 1a3c 6978 f43c 5622 afbc 43ed b13d
000001c0: db18 6b3d 3b19 f83d 0608 763d 5fff 9cbd
000001d0: 3f1b b8bc b09b c93d 2edd 803d 6893 cc3d
000001e0: 67e9 fc3d 7bed 79bc 067c c53c d70a 3c3a
000001f0: bd88 533c c065 bd3c f605 09bd fef9 cfbc
00000200: 8e13 41bd 147d a2bd dff9 a0bd 12d1 2c3d
00000210: c8fd fa3d 27b6 d03d 95de 353e f26b a83d
00000220: 7047 aa3d 3902 1cbc 1582 ba3d 3547 2c3e
00000230: c5c2 103e dc78 f13e 8e32 0fbf 0599 e6be
00000240: cc52 1bbf 2b4a 16c0 bcd4 d33b 6ad3 ef3a
00000250: 500a 31bd 6b15 46be 4242 03be 6b87 32be
00000260: a780 84be 8e97 993e 8ef4 f63c aff8 a8be
00000270: 9366 d0bd 4abe 7abf 379d d4ba e930 9bbc
00000280: 283f c1bd b451 28bd fab1 a9bd 72c4 02be
00000290: 1c88 4ebe 419c 333d 1e0e 553d bc63 9d3e
000002a0: 81c4 6f3c 3617 11be 550b d13d 2d05 1f3d
000002b0: a200 8a3e 7569 b3bc 5f1a 42bd 7d03 aa3d
000002c0: 73e6 203e 47a0 083e cbba 793c bc85 a83d
000002d0: e63c 7d3d 4c35 3b3e e57d 7a3e 8cf7 55bd
000002e0: 571b aa3c 342b 913d 0ab9 343d 5048 42be
000002f0: 7112 933c 5591 fa3d 552f 4c3e 3cd4 963d
00000300: ed95 ac3c d253 0dbe e6f0 e5be 8414 07be
00000310: 735a f4bc e529 0dbd ea73 3b3d fd54 543e
00000320: 79b4 81bd 5d24 3b3e c95f edbd 4786 643a
00000330: e940 0b3c f79b 933b ae0a 163e dbf8 b43d
00000340: fe88 053e 64fb 633e 3cc8 9fbd 389e 003e
00000350: 7a05 443c 004e 233e ea64 ae3e 24a1 593e
00000360: 0dbc 06be 6dfe 6abe cf07 22be 8e1e 04bf
00000370: c234 1b3d 6d00 c83c efe4 a0be 867e 75bd
00000380: 8b69 33bd 3bef 8e3e 4296 673d 9b7a 1abd
00000390: f787 0fbe bd4c 1fbe 2f76 8fbd 4068 133e
000003a0: 2241 62bc f519 a53d 210f 6b3a f667 18be
000003b0: 6998 883d c966 f6bd 4115 5dbe 6dfd 0e3d
000003c0: 18ae cbbd eb9b 253e e65d 2c3e 912a a1be
000003d0: 20fd acbc 7140 0fbe 2ca5 cabd 9a9a 27bd
000003e0: 0a06 02bd e509 c7be e52e 7abd fed3 20be
000003f0: 5a2a 4e3c 3baf 15bd cd44 10be 726e 6fbd
-0.1090249 0.19308683 -0.06598096 0.050719835 0.3280335 0.124452315 -0.038113482 0.122480184
-0.023626354 0.029000103 -0.06358593 -0.024862267 -0.019747714 -0.08407265 -0.106189564 0.00081794825
0.039811116 0.18269794 0.014549984 0.043538243 0.13717844 0.17145178 0.109317444 0.0003633198
0.23227303 -0.13956076 0.3184044 0.046849415 -0.035744485 0.17012317 0.027213402 0.12037838
-0.016337791 -0.1712974 -0.28376123 -0.19864736 -0.048472386 0.11100788 0.15471596 0.023532324
0.07745433 0.0024058337 0.00892099 -0.18434852 -0.06532099 -0.0048446744 0.17832962 -0.060891517
-0.084769666 0.048885215 0.2343086 0.21467437 0.10096205 0.054739587 0.053738873 -0.055752814
-0.3344337 0.020955348 -0.2801357 -0.07083337 0.006578336 0.23734297 -0.0024747737 -0.064826466
0.062288716 -0.06107342 -0.07648128 -0.0268209 0.13626006 0.22471327 0.0028790736 0.15443438
0.021777097 -0.0001017623 -0.03967518 0.3140711 -0.20506859 -0.20666496 -0.021099748 -0.54886067
-0.16624737 0.2543402 0.05649073 -0.13746908 -0.03425682 0.044854943 -0.0040002307 -0.2514314
0.049344026 -0.13980885 -0.03751726 0.12917434 0.108752415 -0.008496921 -0.09494135 0.13066444
-0.027740069 -0.5599557 -0.014296309 -0.5211846 -0.02927623 0.18739653 0.017837184 -0.3387014
-0.2505806 0.15944944 -0.14674199 -0.6560757 0.009427307 0.029842572 -0.021378677 0.08687832
0.05739675 0.12114187 0.060066245 -0.07665896 -0.02247393 0.09844148 0.06292187 0.09989053
0.123492055 -0.015254374 0.02410699 0.0007173246 0.012911019 0.023119807 -0.03345295 -0.02538776
-0.04713779 -0.07934013 -0.07860159 0.042191572 0.12255436 0.10190993 0.1776069 0.08223714
0.08314407 -0.009522014 0.091068424 0.16824038 0.14136799 0.4716252 -0.55936515 -0.4503862
-0.60673213 -2.3482769 0.006464569 0.0018297259 -0.043222725 -0.19344108 -0.12818244 -0.1743447
-0.25879404 0.2999844 0.03014591 -0.3300223 -0.101758145 -0.9794661 -0.001622117 -0.01894422
-0.09435874 -0.041093543 -0.082858995 -0.1277025 -0.20169109 0.043850187 0.052015416 0.30740154
0.0146342525 -0.1416901 0.102072395 0.038823295 0.26953608 -0.021900872 -0.04738843 0.083014466
0.1571291 0.13342391 0.015242289 0.08228633 0.061825655 0.1828205 0.24462087 -0.052238032
0.02076499 0.070883185 0.04412178 -0.18972898 0.01795313 0.12234751 0.1993993 0.07364699
0.021067584 -0.13801506 -0.44910353 -0.1319142 -0.029828286 -0.034463782 0.04576484 0.20735545
-0.063332506 0.1827559 -0.11590535 0.00087175186 0.0084993625 0.0045046764 0.14652511 0.08836528
0.1304054 0.22263867 -0.078018636 0.12560356 0.011964196 0.15947723 0.34061366 0.21252877
-0.13157673 -0.22948618 -0.15823291 -0.5160912 0.03789211 0.024414266 -0.31424662 -0.059935115
-0.043801825 0.27916893 0.05653978 -0.037714582 -0.1401671 -0.15556617 -0.070049636 0.14395237
-0.013809474 0.080615915 0.0008966793 -0.14883408 0.06669695 -0.120313235 -0.21590139 0.034909654
-0.09945315 0.16172759 0.16832694 -0.31477788 -0.021116793 -0.13989426 -0.09894785 -0.040918924
-0.03174404 -0.38874736 -0.06107988 -0.15705869 0.01258334 -0.036544066 -0.14088745 -0.05845494

fc1.bias f4 [64]
00000000: ea3a 283e f5d1 c8bc 4a1b 24be 3abd 4dbc
00000010: 56ed 1e3e 028d b4bc 5872 5cbe 9c2c ea3d
00000020: 320e 203d fabb 36be e8f5 433e 3020 3e3e
00000030: 528c 9c3d fb0e 06bc 745e 49bc 1c19 92bd
00000040: 9cee 75bd 0839 cbbc 47f2 b9bc d14d 6ebe
00000050: e35c e13b 3f84 883b 47fe 0a3d b7a3 06bd
00000060: cc00 83bc 5f5f bc3d 6528 563c 4cb2 8a3a
00000070: 299f 803d 383d 5e3d 3df5 7ebd 5b41 67be
00000080: 6c8b 513e 253a edbc 68c8 90bd a701 143d
00000090: 0b53 c6bd da98 023e f121 b0bc 3e51 65bd
000000a0: 8584 0abd 04b2 f3bd 9bf1 b9bd 91f4 4c3e
000000b0: 36f2 813c 3ae5 96bd 9187 053d 3d84 4dbe
000000c0: b713 efbc 777e dc3d 192a 37be d2db 873d
000000d0: 234e 68bd 367b 143b 42ab 50be 478e e9ba
000000e0: 2226 393e d010 64bd 591e 4abe 5aad 23be
000000f0: 0fdb 963c 32c1 beb9 31e8 7b3c a24d 833d
0.16428724 -0.024514178 -0.16026035 -0.012557322 0.15520224 -0.022039894 -0.21527994 0.1143429
0.039076038 -0.17845145 0.19136775 0.18566966 0.076439515 -0.008182283 -0.012290586 -0.071336955
-0.06004201 -0.024807468 -0.022698535 -0.23271872 0.006877528 0.0041661556 0.033933904 -0.032870974
-0.01599159 0.09197878 0.013071154 0.0010581701 0.062803574 0.0542576 -0.062245596 -0.22583525
0.20463341 -0.02895839 -0.070694745 0.03613439 -0.09683808 0.1275362 -0.02150056 -0.05598568
-0.033817787 -0.11899188 -0.09079286 0.2001517 0.015862565 -0.0736794 0.03259999 -0.20069976
-0.029184205 0.10766309 -0.17887153 0.06633724 -0.056715142 0.0022656447 -0.2037783 -0.0017818891
0.18080953 -0.055680096 -0.19738139 -0.15984097 0.018415002 -0.00036383566 0.015375183 0.06411292

fc2.weight f4 [64, 64]
00000000: edb2 033d ba52 b63d a926 bebe f5e9 43be
00000010: 9ae4 ae3d f276 21be 6639 63be c4ce d93d
00000020: 82fe cb3c 777d 1e3e d275 e93c 5e63 e63d
00000030: b6c0 c9be 18be 6b3e 1b94 4ebe 4942 86bd
00000040: aa8c b1bd 8a2a 2cbe 6c94 d6bd 4adb c0bc
00000050: d4ed bcbe de63 93bd 88ec 02bd 09fa 283e
00000060: 6b2f 70be e722 393e 8a74 84bd 84aa 09bd
00000070: 5c59 08bd dd6f 2dbd ef8d 903e 7f3d e0bd
00000080: 8004 24bb 4ab4 d63e ab53 2f3d f1ea 1fbd
00000090: 414b 21be a7db 853d 820b 713d b959 adbe
000000a0: 8660 b13d 3414 6d3d 3c11 bc3d 3116 f4be
000000b0: c9a0 013e 1c29 9c3d 298c 7cbc 742b 3f3d
000000c0: c099 323d d9a4 c7bd a333 66bd 87f3 d33d
000000d0: 3446 eb3d f843 b53e b4d5 a63d 5938 4ebc
000000e0: 938d 92bd 6d1b 533d b895 0abf 9286 393e
000000f0: 058a 5cbe e7ba 52bd 0177 25be e03e fbbd
00000100: 13b3 83bd 9e49 033d 4509 89be 39c4 fc3d
00000110: 7510 dcbe 5567 f2bd cc29 19bf 9c2f b73e
00000120: 5ff1 793d 7d34 a5bc 0b99 783d 96ee 053d
00000130: 7683 fabe 666a eb3d 9e3a 643e 03d4 d3be
00000140: c4cb 88bc a018 a2be 3e1d 75be a07c e5be
00000150: a29f cf3a c6e3 abbe 93c3 d0bd 40ff ffbe
00000160: 5e00 f8bc 4fda 37bd 8849 d2be 4448 4cbe
00000170: 308b 103e 1013 a1be 3f0e 65bd d1b3 38bf
00000180: e2b7 33be 0499 44bd a1ef d23d 7629 51be
00000190: 32b6 9c3d 37e0 c53d 5d53 75bd 0dcb f5be
000001a0: c1a5 1dbd 3b40 363d 9574 663c 6ea5 fbbe
000001b0: 34a7 f2be df59 f8be f2d5 81be f65c adbd
000001c0: eb63 99be f0ab 14bd e8ea f13b d3cf 183c
000001d0: 59fb 09be 25ab 893d 63ea ccbd 4093 37be
000001e0: 8f13 c1bd 315d f8bd 7b66 21be 0082 b23e
000001f0: b0a3 d0be 05a2 debc 73aa cf3d acc0 91bd
00000200: 5c01 16be 675e e0bd 78f6 2f3e 75e3 bebe
00000210: ddda 313e a737 f9bc b52b 83be 72de 363e
00000220: 336d f7bc 2d5f 82bd 583a 11be 05fc 953d
00000230: 43c7 1f3d 6072 2f3e 2b4d c0bd 02a8 993c
00000240: a5b1 31be 87b9 303e c76a c5bd 1932 17be
00000250: 6c16 02be d1f0 043e fd9a 9d3c 91f4 60be
00000260: 1aba 813d 159e 073e 18da cdbd bec3 153d
00000270: 0445 5c3e 0839 f73c f1dc 343d 414a 883d
00000280: bdf4 e4bc 5401 6a3e 77f4 3ebe 4195 fb3c
00000290: 3373 ab3d 7594 c8bc 2971 9a3d de11 a83e
000002a0: 5d54 933e e677 7dbe c513 22bd b89c ecbe
000002b0: 1f5e c5bc 1b86 9cbd b32b f4bd b3d4 90be
000002c0: 3263 72be 8fdb 3f3d 79f9 c3be 3595 843e
000002d0: 2407 2dbe f3cc 183d a6eb 73be f12f 4abe
000002e0: 54e4 11bb 5f91 22be 776e 173e d47f 293e
000002f0: 34d3 84bd 9302 ebba ff30 45be 5f1c b7bd
00000300: 8b2e c03d 7e1c a6be 9172 8dbd 24fc f5bd
00000310: d078 0e3e 9819 a4bd 4a44 01be c148 9bbd
00000320: ab51 a4be f100 973d f3b3 00be 7d8b 753e
00000330: 197a 78be 7a15 a1bd 3c36 95bc 7ab1 adbd
00000340: fc7a 933d b77a e2bd 0db0 5ebd d385 08bd
00000350: f371 35bd 47bd 0b3e 1d9c 833d cad1 adbd
00000360: 9066 f83d 39d4 4dbb b943 56be 7d60 8bbe
00000370: 687b 9e3c fdc6 58be b94a 8bbe 68b8 75be
00000380: 4778 84be 684b 4c3e 08ad 0b3d 6ade 793e
00000390: 840d 62be 93be 083d 8c5d 313d 6600 0c3e
000003a0: ed15 8e3d 6e39 e53d 2467 243d d4ab 81bd
000003b0: 9608 5a3c d69e 653b 3756 28bd bd1c 13bd
000003c0: ed00 83be 091d f23d 4d0c 93be 56fb dfbc
000003d0: 43d3 4e3c 1a02 b1be d108 19bd 49db 52be
000003e0: c130 89be 6590 fbbd 6ea7 81bd 9884 f63d
000003f0: 847c c2bd 560d 453d 8921 ccbe 2e21 833d
0.03215306 0.089024976 -0.3713887 -0.19132216 0.08539696 -0.1576803 -0.22189865 0.106351405
0.024901632 0.15477549 0.028498564 0.112494215 -0.3940484 0.23021734 -0.20173685 -0.06555612
-0.08669408 -0.16813102 -0.10477528 -0.023542065 -0.36900198 -0.071967825 -0.031963855 0.16501631
-0.23455589 0.1807972 -0.064675406 -0.033609882 -0.033288345 -0.04234301 0.28233287 -0.109492294
-0.0025027096 0.41934425 0.0428044 -0.039042417 -0.15751363 0.06536036 0.058848865 -0.33857515
0.086609885 0.057880595 0.09182975 -0.4767318 0.12658991 0.076250285 -0.015414276 0.0466723
0.04360366 -0.09748239 -0.05620159 0.103491835 0.114879996 0.3540342 0.081462294 -0.0125866765
-0.071559094 0.051539827 -0.541347 0.18117741 -0.21537025 -0.051447775 -0.16158678 -0.12267852
-0.0643064 0.03205263 -0.26764885 0.12342114 -0.42981306 -0.11836115 -0.598294 0.3577851
0.061021205 -0.02016663 0.06069283 0.032698236 -0.48928422 0.11494903 0.22287986 -0.4137269
-0.016698726 -0.31659412 -0.23936936 -0.44821644 0.0015840421 -0.33572215 -0.10193553 -0.49999428
-0.030273613 -0.04488593 -0.41071725 -0.19949442 0.14115596 -0.31459856 -0.05592179 -0.7214938
-0.17550614 -0.04799749 0.10299612 -0.20425972 0.076519385 0.09661906 -0.059893955 -0.48006478
-0.038488153 0.04449485 0.014065881 -0.4914965 -0.4739319 -0.48506066 -0.2535854 -0.084649965
-0.29959044 -0.036296785 0.0073827393 0.009326893 -0.13474788 0.06722096 -0.10005643 -0.17927265
-0.09427559 -0.1212715 -0.1576175 0.34864807 -0.40749884 -0.027176866 0.101399325 -0.07116827
-0.14648956 -0.10955506 0.17183864 -0.3728291 0.17368646 -0.030422045 -0.25619283 0.17858294
-0.030203437 -0.063658096 -0.14182413 0.073234595 0.03900839 0.17133474 -0.093897186 0.01875687
-0.17352922 0.17258273 -0.09639507 -0.14765204 -0.12703866 0.12982489 0.019238943 -0.21968295
0.06334324 0.13243897 -0.10051364 0.036563627 0.21510702 0.030178562 0.04415602 0.06654788
-0.027948732 0.22852069 -0.18647943 0.030710818 0.08371582 -0.024484852 0.07541115 0.32826132
0.28775302 -0.24752769 -0.039569635 -0.46213317 -0.024092732 -0.07642766 -0.119223975 -0.28287277
-0.23670653 0.046840247 -0.3827627 0.25895086 -0.16897255 0.03730483 -0.23820361 -0.1974485
-0.0022261338 -0.15875767 0.14788233 0.16552669 -0.06485596 -0.0017929844 -0.19256972 -0.08940958
0.09383877 -0.32443613 -0.069066174 -0.12010983 0.13913274 -0.08012694 -0.12623706 -0.07582236
-0.32093558 0.073732264 -0.12568645 0.23978992 -0.24265327 -0.078654245 -0.018214338 -0.084811166
0.07201192 -0.11058562 -0.054367114 -0.03333075 -0.044298124 0.13646422 0.064262606 -0.0848728
0.12128937 -0.0031407012 -0.20924272 -0.27222052 0.019345954 -0.21169658 -0.27205446 -0.23996127
-0.25873014 0.1995064 0.034100562 0.2440125 -0.22075468 0.03338487 0.043302104 0.13672027
0.06937776 0.111925945 0.040137425 -0.06331602 0.013307711 0.00350373 -0.041097846 -0.03591608
-0.25586644 0.11821944 -0.28720322 -0.027341526 0.012623611 -0.34571916 -0.037361924 -0.20591463
-0.2679501 -0.122834004 -0.06330763 0.12037009 -0.09496406 0.04810842 -0.39869335 0.06402813

fc2.bias f4 [64]
00000000: b6b0 dbbc 8044 acbc deaf 763d ee60 8c3b
00000010: a8cf 043e 6545 99bd f565 73bd 78c3 2b3d
00000020: e6a4 8b3c f511 d03e dede 16bd 6eda 163e
00000030: 89db 913e 2e4f 69bc 3722 87bd 45f8 053d
00000040: a04a a23e 76df f7bc af28 e1bd 4e2d e43d
00000050: 3052 a33d cd61 b93e 2296 43be 8391 efbd
00000060: 2cf8 21be 84b1 d6bd 6064 393d e088 ecbc
00000070: e5cb 98bd c818 2f3e a9a9 293d 030f 14be
00000080: 3021 30bd 4496 8c3d 68e7 883e 0b4e 51bd
00000090: d807 f1bd f0c6 fcbd da9c d63d 1f28 c6bd
000000a0: 0392 7abc e1fe fc3e 246c 2f3e b786 00be
000000b0: d4e4 9b3d 2efb 05be 299f a2bd ea4a 19be
000000c0: ff33 4f3d b9f1 bfbd 73ab 2dbe db8a d73e
000000d0: aa0b 85bb 56f7 8ebd ef10 1d3d 8ba1 9fbd
000000e0: 288d 79be 46ca c7bd 5733 843d c7f5 80bc
000000f0: cdd4 a43c 5685 c33d 2df8 1c3d b51b 2dbe
-0.02681766 -0.021028757 0.060226314 0.004284016 0.1296984 -0.07483939 -0.059423406 0.04193446
0.017046403 0.406387 -0.036833636 0.14731762 0.28487805 -0.014240069 -0.06598323 0.03270747
0.3169756 -0.030257922 -0.10994088 0.11141454 0.079746604 0.3620743 -0.1910024 -0.11697676
-0.15817326 -0.10483077 0.04526174 -0.02887386 -0.07460765 0.17099297 0.041421566 -0.14458852
-0.0430004 0.068645984 0.2673905 -0.05109982 -0.11769074 -0.12342632 0.10479136 -0.09675621
-0.015293601 0.49413207 0.17131096 -0.1255139 0.07612005 -0.13084099 -0.07940514 -0.14969984
0.050586697 -0.09372277 -0.16959934 0.42098126 -0.0040602284 -0.06980769 0.038346227 -0.07794484
-0.24370253 -0.097553775 0.06455105 -0.015742196 0.020121003 0.09546916 0.038322616 -0.169051

fc3.weight f4 [4, 64]
00000000: c305 573e 6ebb 433e 0a4a d13d 19cd a03d
00000010: 32e7 cb3e 3206 a93e 3fa3 803e 2b12 bfbd
00000020: bc1a f73d eeb0 e43d 158e 00bf b374 033e
00000030: 28da 273e d8f2 b63e f771 38be c100 5fbe
00000040: e570 dd3d 2f3f 043e 612e 12bd 13a1 413e
00000050: 5ee8 303e 5d9e 173e 6e9a 103d 6563 983d
00000060: f679 adbe 8fb1 38be ac94 01be 0b0c 6dbc
00000070: 26fc ab3e 6921 2e3e f0bd 0b3f f956 e03d
00000080: 85e8 653e 8e83 0d3e d4ee 2f3e bb07 263e
00000090: d9b3 873d c730 0ebf b85b c23e a3db 86bd
000000a0: ca48 e23d 6321 343e 5888 19bd 04ca 9b3d
000000b0: c4af a93e 4138 f5bd 7663 103e 0ba3 383d
000000c0: 0441 913e eb15 5c3e 22d9 f2bd baad 003e
000000d0: f28d 7d3d 6911 8f3e f1c2 203d de65 89bd
000000e0: 3786 45be 3df1 9d3c 48cc 8d3e c358 313e
000000f0: f671 a4bd 14e6 553e 39f7 b03c 554d 68bd
00000100: 51af 9a3e 0354 babe b3c5 893d 91a3 f33d
00000110: 991e bf3e d893 ba3e 0601 153f ea38 7b3c
00000120: 2154 6a3d e424 1c3e f588 53be 7992 c73d
00000130: c4aa 2b3e cfec 763e 13d0 8abd 65d7 0c3e
00000140: 2030 713d 56c3 3e3e 741b 3fbe 55e0 0e3e
00000150: 9654 d63e dfb0 483e 4311 e1bd 7f2b 2c3e
00000160: 4565 00be 5991 c3be ebfe 0c3d 73aa 983e
00000170: 5c80 94be 8d8a 023e e67a a83e ce2c c63d
00000180: 531f d93d 5d14 96be c366 1c3e 9bd4 0e3e
00000190: 349c 603e 28ca 1dbe 0836 373e d32e 023f
000001a0: a8a3 363e 4a6d 053e 1faf 533d d5b3 303d
000001b0: 8670 793e ac6c 6fbd 83b9 2c3e 6cdd e9be
000001c0: c98d 7f3e d465 813e f164 bbbd fbca eb3d
000001d0: 618f 6c3e e658 0d3f 7e91 d73d d40d e13d
000001e0: a95f 8cbe 977c 673d b11c 613e 4d65 3e3e
000001f0: 629d 1f3c 0d2c b13d 0684 84bd d013 acbd
00000200: 7a54 e13e 7471 cebb 7424 a33e 8b4b e03e
00000210: af9e ae3e 78dc 1d3e 2529 f23d 882c 31b9
00000220: b5e0 813d ea91 b13d e5d5 7fbe 5506 8f3e
00000230: 9472 5c3e 1617 7d3e 4004 a8be 4103 d5bc
00000240: 0f5b f73d 62c0 eabe ebf9 75bd 732a 54bd
00000250: 99a7 c33c 94b0 703e a7f6 8dbe 6556 e73e
00000260: 3b5a e73c 03f6 6fbe 6b63 f03d 12c7 87be
00000270: 442d a0bb f821 a93d 3213 103f 3095 7dbe
00000280: dcbb 843e e9bf 373e 0518 1c3e fa24 d33e
00000290: b9d0 efbe 4624 2fbe e68d 1c3e 0e93 d43d
000002a0: c647 893d 17ce 233e 53e4 453e bcc8 013e
000002b0: 80f9 a53b 6385 c9bd 6f4d 143e 9225 523e
000002c0: 9956 c23e 8228 c43d 8208 a1bd ccae 443e
000002d0: 6a4e 2ebe 43be 1bbe 67e5 583e f366 71be
000002e0: 7f62 8abe 0a04 3a3d 91cc 9e3c 18d9 a93d
000002f0: 7b5e 80bd 911c 9b3d a6ad 20be 5e6b 1bbe
00000300: ac50 a13e 61ae 803e 2a75 703e 5d8b 2cbe
00000310: 3260 593e 3143 0a3f da37 8bbe 536e 7f3d
00000320: f47d aa3d cd86 433e b12c 56be 94eb f43d
00000330: 55e9 263e 73b1 a73e 7bed 37bd a1c3 8ebe
00000340: a060 653e 97d6 ffbe 8abf ec3d 30a6 163e
00000350: ab03 793e dbcc 403e 2e14 67be f62e 68bc
00000360: 563c b2bd fb7e b5be d33e 04be a39e 08be
00000370: 0970 c2bd 6ead 003e e0aa 893d 223a c7bd
00000380: 90b4 713e a061 edbc 8a9e 573d fe2a 5cbd
00000390: ee93 5e3d 1365 0e3c 97d8 013e d160 dc3d
000003a0: f0d8 063e ef97 483e c961 2a3e 7071 01be
000003b0: a077 993e c455 68be 6581 993e 0120 77bd
000003c0: 7122 3d3e fbe0 a53d 9821 f63e 3b4e 133e
000003d0: e8db 0fbf 6732 303f 7bad 7b3d e263 ac3e
000003e0: ee0e bfbe 0cbf 89be 6c32 823b 72d2 bb3e
000003f0: 2916 85be 24a5 34bd a5a4 0ebe 1a60 7b3d
0.20998292 0.19114468 0.102192 0.07851619 0.39824826 0.3301254 0.25124547 -0.09329637
0.12065646 0.11166559 -0.502168 0.12837486 0.16391814 0.3573215 -0.18012224 -0.21777631
0.108125485 0.12914728 -0.03568876 0.18909101 0.17276141 0.14806505 0.035303526 0.07440833
-0.3388211 -0.18036483 -0.1265437 -0.014468203 0.33590811 0.17004932 0.54586697 0.10954089
0.2245198 0.13819715 0.1718095 0.16213886 0.066261 -0.5554318 0.379606 -0.06584861
0.1104904 0.17590861 -0.037483543 0.07606891 0.3314191 -0.1197362 0.14100441 0.045077365
0.28369915 0.21492736 -0.11857821 0.12566271 0.061902948 0.2794297 0.03924841 -0.06708883
-0.1928948 0.01928007 0.27694917 0.17319016 -0.08029549 0.20888549 0.02160226 -0.056714375
0.3021188 -0.3639222 0.06727161 0.11896432 0.37328032 0.3644092 0.58204687 0.015333394
0.057209138 0.15248448 -0.20657714 0.09744734 0.1676436 0.24113773 -0.06777968 0.13754041
0.058883786 0.18629202 -0.18662816 0.13952763 0.4186141 0.19598721 -0.109896205 0.16813467
-0.12538631 -0.3819683 0.034422796 0.29817542 -0.2900418 0.12748165 0.32906264 0.096765146
0.10601678 -0.2931241 0.15273575 0.1394829 0.21934587 -0.15409148 0.17891705 0.508527
0.17835867 0.13029972 0.05168068 0.04314025 0.2435933 -0.058453247 0.16867642 -0.45676744
0.2495643 0.25273 -0.091501124 0.11513325 0.2310157 0.55213773 0.10525797 0.10988966
-0.27416733 0.056515303 0.21983601 0.1859333 0.009742113 0.0865098 -0.06470494 -0.084022164
0.44009763 -0.0063001458 0.3186375 0.43807635 0.3410544 0.15416133 0.11824254 -0.00016896625
0.063416876 0.08670409 -0.24983938 0.27934518 0.21528083 0.24715838 -0.32815742 -0.026002528
0.12077915 -0.458499 -0.060052793 -0.051798295 0.023883628 0.23504859 -0.27727243 0.451831
0.028241267 -0.2343369 0.117377125 -0.26519066 -0.0048882086 0.08258432 0.5627929 -0.24763942
0.25924575 0.17944302 0.15243538 0.41239148 -0.4683893 -0.17103681 0.15288505 0.10379611
0.06703143 0.15996586 0.1932538 0.1267423 0.005065143 -0.098398946 0.14482664 0.20522144
0.37956694 0.09578039 -0.07862951 0.19207305 -0.170221 -0.15209298 0.2118126 -0.23574428
-0.27028272 0.04541401 0.019384654 0.082933605 -0.06268021 0.07573808 -0.15691242 -0.15177676
0.3150686 0.2513304 0.23482195 -0.16850038 0.21228102 0.54008776 -0.2719105 0.062361073
0.08324805 0.19094391 -0.20915486 0.119589955 0.16299947 0.3275257 -0.044904213 -0.27883628
0.22400141 -0.49968407 0.11559971 0.14711833 0.24317805 0.18828146 -0.22566292 -0.014171353
-0.087029144 -0.3544844 -0.1291459 -0.13341765 -0.09494025 0.12566158 0.06722045 -0.09727885
0.23604035 -0.028977215 0.05264143 -0.053751938 0.054340295 0.00869109 0.12680279 0.10760654
0.13168693 0.19589208 0.16638865 -0.12640929 0.2997408 -0.22688967 0.29981533 -0.060333256
0.1847017 0.08099552 0.48072505 0.14385311 -0.56194925 0.6882691 0.06144474 0.33669955
-0.37316078 -0.2690357 0.003973296 0.36683995 -0.2599347 -0.044102803 -0.13929994 0.061370946

fc3.bias f4 [4]
00000000: d947 893e 5ab2 863e f48e 423e d610 343e
0.26812628 0.26307946 0.18999845 0.17584547
