checkpoint.pth (torch_old, 28405 bytes, 6 tensors)

fc1.weight f4 [64, 37]
00000000: 0a2c 9dbc 1312 403a 3d15 9cbd 026e 7fbc
00000010: 8581 c23c eaf7 8a3b c605 bcbc 18be 213d
00000020: e266 223b beb6 6fbd 433c 333e c5dd 90be
00000030: e8ff 8ebe d07f 97be b3d2 d5bf 19b6 423d
00000040: 26c5 903c 2485 8f3d ac3d 9b3d 2b6a 9c3d
00000050: a949 d5bc 43be a23d 5f35 863d fa4a 5c3e
00000060: f4bd 863e bc15 a3bc b27a d43c ef3d f2bc
00000070: 85b0 8cbd 7c8e 7cbd 59e6 5dbc f6f3 e5ba
00000080: 0782 4eba 22c9 61bd 2a85 43bd 9e9e 59bc
00000090: 0628 99bb 410a 0f3e 36d7 ec3b 32f9 dd3d
000000a0: c153 a0bc 96b6 2cbe 6d01 02bd db32 52bc
000000b0: 845c 29bc 12e5 9bbe 4e31 bbbe caa2 9f3c
000000c0: 3756 acbc 978b 163d 3cb7 c53d 8891 823d
000000d0: 7594 603e 4f98 14be 20cf 623d 6122 19be
000000e0: c1f5 83be 685b 29be e24f 27be c8f9 bcbc
000000f0: 5963 ad3d 82d9 8f3d a2fc 243a 496a ba3c
00000100: 56c1 fc3c 0655 2bbe 6dbb aabd 528f 90bc
00000110: 6f11 f23c b38a 1a3e 7fc6 8a3d c732 273e
00000120: 4ead 7d3c 63d9 803c 0112 c33d 75e5 da3d
00000130: c5dd 0c3e 22f7 1b3e 8300 97bc e1f2 03bf
00000140: 454d 413e 28c0 b63e 2971 4e3e f427 2ebf
00000150: 1c6a c3bd 7606 4d3d 6f9b 233d fc4e 2c3e
00000160: 5900 d23d 1e32 74bd 327a c33d b945 9c3d
00000170: de75 2b3e 4794 b83a 0cc9 febd e8d9 50bd
00000180: 344b 103e f9ba a9bd 8779 a3bc e854 12be
00000190: 25b0 f03d e6f5 183e cf9b 4d3e 2591 733d
000001a0: b7de 5bbe 6a77 853d 2149 363d c4ea ccbd
000001b0: 158f 2cbe d539 1a3c ad21 a13a 6d38 1b3d
000001c0: fb91 de3d 56a3 393e 8654 36bc 250a 2bbf
000001d0: c14d 163d 43d5 71be 27f3 69bd 9913 e43d
000001e0: f44b 0cbd c477 62bd 6715 9abd 05a5 173e
000001f0: b923 49be a101 36be 3064 8bbd 0f6e c4bd
00000200: 4c82 38bc 36ff 2dbe d741 4cbe 42a1 d1bd
00000210: 039f 993d 1f80 173d c6bc 1abd d318 203d
00000220: 2acc 08bf 04dc 55bd e075 693e b0ed 663d
00000230: ce45 653e 3f7c 883e 43d8 18be 40d3 a7be
00000240: 5fb8 b1be 54e0 9bbf f477 3ebd 5c81 a8bc
00000250: 3ace 9dbd c6aa d4bd c911 acbd 10d9 dfbd
00000260: bb5d 55bd 83ff 983e d32c 7ebe 4fe0 edbe
00000270: d232 a5be 7902 bdbf b75a a3bd e46f 683a
00000280: 0b57 12bd c9ca dd3d 21f6 b1bd 8010 7abd
00000290: 7bca bfbb 2da2 b1bc 1301 7a3d f749 223e
000002a0: de65 fcbd 485f 28bd f873 253d d9ad 343e
000002b0: 6e3a 983e 7b26 f9bc 2c7b 803d 2b45 e83d
000002c0: 9ea7 353e 0039 8c3e 0f80 073e 7da6 19bd
000002d0: 289b e33d f5a7 563d db8f 83bd e94d 8c3c
000002e0: a7fc bc3b 269a 623c 9bd7 1d3d 8273 ba3c
000002f0: e1ea 43bc 879c 673d de99 9e3e 0b43 1abe
00000300: 2f5b abbe b2fc bdbd 91b6 5bbf e13b 1a3c
00000310: defa afbd f804 b1bc 7187 15bd 27c2 b83d
00000320: 77be d93d 7766 05bc 882c 36bd 8a51 55bc
00000330: cc2a 6bbe 59e1 323e 520a 823d 2e72 b73d
00000340: 42be 7c3d b3cd 16bd aa2a 8e3d 32c3 e2bd
00000350: dfb6 5cbd 90db 0c3e 5304 d33c 9862 e63d
00000360: d4db a6bc 175b c0bd 48e7 cb3c 2a56 c8bc
00000370: 3691 1ebd 94ad 043d 0460 a23e 3416 aebe
00000380: b6b8 16be 54f1 eebe 062d cabf 0f3f 94bd
00000390: ee96 02be 5963 c93c cf48 d83c e3d6 783e
000003a0: 7259 a73d 364b 793d fad1 dd3d 1655 d13c
000003b0: cfc9 963d 091f 28be 7856 1d3d 7414 e13c
000003c0: 09f4 183e ac56 793e d1b2 3fbd 17aa bf3c
000003d0: a53e f63c fa0c 7abd bc8a 8d3d 2fe0 a1bd
000003e0: d1b7 e1bd 058c 9cbc 3951 be3b 788d 123e
000003f0: b932 033d 5425 beba c0e5 f63c c1a2 28bb
-0.019186039 0.0007326912 -0.076212384 -0.015590193 0.0237434 0.0042409794 -0.022951972 0.03948793
0.0024780561 -0.058523886 0.17503457 -0.28294197 -0.27929616 -0.295897 -1.6704925 0.047536943
0.017672133 0.070078164 0.07580122 0.076374374 -0.0260361 0.07946446 0.065531485 0.21512976
0.26316798 -0.019907825 0.025937412 -0.029570548 -0.06869606 -0.06165932 -0.013543689 -0.001754402
-0.0007877652 -0.055123456 -0.047734417 -0.013282446 -0.0046739606 0.13968755 0.0072278036 0.10838546
-0.019571187 -0.16866526 -0.03173964 -0.012829508 -0.010336999 -0.30448204 -0.36561054 0.019486804
-0.021037204 0.036754217 0.0965409 0.06375414 0.21931632 -0.14511226 0.05537331 -0.14954521
-0.25773433 -0.16538775 -0.16339067 -0.023068324 0.08466215 0.07023908 0.0006293749 0.022755759
0.030853909 -0.16731653 -0.0833653 -0.017646465 0.029549329 0.15091972 0.067761414 0.16327964
0.015483214 0.015728658 0.09524918 0.10688297 0.13756473 0.15230992 -0.018432861 -0.5154248
0.18877132 0.3569348 0.20160355 -0.68029714 -0.09541723 0.05005499 0.039943155 0.16827005
0.102539726 -0.059618108 0.09544791 0.07630486 0.16744182 0.0014082276 -0.124406904 -0.05098906
0.14091188 -0.08287615 -0.01995541 -0.14290202 0.11752347 0.14937553 0.20078968 0.059464592
-0.21471678 0.06516917 0.044503335 -0.100057155 -0.16851456 0.009413202 0.0012293361 0.03789561
0.10867687 0.18128714 -0.01112855 -0.66812354 0.036695246 -0.23616509 -0.057116654 0.111365505
-0.034252122 -0.05529 -0.075236134 0.14809044 -0.19642533 -0.17774059 -0.068062186 -0.095913045
-0.011261534 -0.16991886 -0.19946991 -0.102358356 0.07501032 0.03698742 -0.037777685 0.039086174
-0.5343653 -0.052211776 0.22798872 0.05637902 0.2238991 0.26657292 -0.14926247 -0.32778358
-0.34710976 -1.2177835 -0.046501115 -0.020569496 -0.0770535 -0.10384135 -0.0840183 -0.10930073
-0.05209134 0.2988244 -0.24821787 -0.46460196 -0.32265335 -1.476638 -0.07976287 0.00088667707
-0.035727542 0.10829694 -0.086895235 -0.061050892 -0.005852995 -0.021683777 0.06103618 0.15848528
-0.12324117 -0.041106492 0.0403938 0.17644443 0.29732078 -0.030413857 0.06273493 0.11341318
0.17739722 0.27387238 0.13232444 -0.03751229 0.11113578 0.05240627 -0.06423923 0.017126994
0.005767423 0.013830697 0.038535696 0.022760157 -0.011957855 0.05654576 0.30976766 -0.15064637
-0.33468005 -0.092767134 -0.8582545 0.00941369 -0.08592771 -0.021608815 -0.03650612 0.090214066
0.106320314 -0.008142105 -0.044476062 -0.013019929 -0.22965544 0.17468776 0.06349625 0.08957325
0.06170488 -0.036817264 0.06941731 -0.11072387 -0.053885337 0.13755631 0.025758898 0.11249274
-0.020368494 -0.09392374 0.024890557 -0.024455149 -0.038712703 0.0323921 0.3171388 -0.34001315
-0.14718899 -0.46668494 -1.579499 -0.0723859 -0.12752888 0.024583505 0.026401905 0.24300723
0.08171357 0.060862742 0.108310655 0.025553267 0.07362711 -0.16418089 0.03841254 0.027475573
0.14936842 0.24349469 -0.046801392 0.023396535 0.030059168 -0.06104753 0.06911227 -0.07904088
-0.11021388 -0.019109735 0.0058080223 0.14311779 0.032030795 -0.0014506974 0.03013885 -0.0025731775

fc1.bias f4 [64]
00000000: 72fd fc3d f803 f2bc 5324 9fbd 0d02 6fbd
00000010: e324 6c3e d895 be3b 00b2 37bd fb6a cc3d
00000020: c044 7e3d 2cde 59be 1471 163e 9a6d 3e3e
00000030: 3b76 803d f81c a93c 9df9 9ebd e584 cdbd
00000040: 568f d1bc 8539 373d 127f 24bd 5037 77be
00000050: 0bb5 33be 09d8 5e3d 3531 ca3c 8cba 53bd
00000060: efd2 d6bd ff84 e23d 0559 99bd e48e 46be
00000070: 80cc 313e 2554 b33d 86a8 6abd 25ac 3ebe
00000080: 2b6e 1d3e c469 a93c a2fb 1dbe 202f 863d
00000090: 7f97 70bd 9360 d03c b6d3 7abc a434 29be
000000a0: 31bf cfbd 7060 523c b41b 31be 6787 753e
000000b0: fe80 873c 455a 78bd 5ff7 ecbc 89f0 21be
000000c0: cdc4 b5bd 9783 abbb 348f 1ebe d39a 633d
000000d0: 5e69 eebd ee80 50be 0d24 32be 4065 9dbd
000000e0: 9480 513e b5ca 8ebd aec3 e6bc 4283 25be
000000f0: 7f2b 37bd 79d6 813c 518d b43c 36ff b33d
0.12353028 -0.029542908 -0.077706 -0.058351565 0.23060946 0.0058162026 -0.04484749 0.099813424
0.062077284 -0.21276158 0.14691573 0.18596497 0.06272551 0.020643696 -0.07762454 -0.10035113
-0.025581043 0.04473259 -0.040160246 -0.24142194 -0.17549531 0.054405246 0.024681667 -0.051691577
-0.10489451 0.11060523 -0.07487682 -0.19390446 0.17363167 0.08756284 -0.057289623 -0.18620355
0.15374057 0.020680316 -0.15428022 0.06551957 -0.058738228 0.025436675 -0.015309265 -0.16523987
-0.10143889 0.012840375 -0.17295724 0.23977433 0.016541 -0.060632963 -0.02892655 -0.15814413
-0.088754274 -0.0052341926 -0.15484315 0.055567574 -0.11641191 -0.20361683 -0.17396565 -0.076853275
0.20459205 -0.06972257 -0.02816948 -0.16163352 -0.044719215 0.015849339 0.022040041 0.08788912

fc2.weight f4 [64, 64]
00000000: 1cc4 123c 4d00 6a3d 7137 b23c 483c d8bb
00000010: b084 99bd 8e78 c8bd 9131 703e faf4 44be
00000020: eb63 ef3d c303 8cbd 5709 273d 981d 293e
00000030: 2976 48be d025 2d3e eb99 dabd fd41 f93c
00000040: bf8e e0be d63a 78be 02b7 f6bd 3045 b5bd
00000050: 1284 6dbe af1b c8bd 6fa0 873d 31f4 453e
00000060: f77c c6bd 4a7e 4f3e fd11 1a3b 078a 4fbe
00000070: 3c14 6a3c 1074 9ebd 8e0e 3b3e cc69 93be
00000080: 1695 bc3d 3e1e 003c 2a24 40be 2581 51be
00000090: 7e45 0fbe 9d8f 68be a815 153e e866 c4be
000000a0: 9acc c8be 5055 a33d 6b5b bd3d bb35 75bb
000000b0: 210d 2a3d e4d3 a1be 20b8 c5bd 19c8 1d3c
000000c0: f44a 9d3d 8c30 b03d 4973 4b3c 4ffa 1e3c
000000d0: a25b 03be 9279 1f3e cb95 283c 831d eb3b
000000e0: acce f5b9 c9e6 32bb 0ef7 ccbe 1a32 42be
000000f0: 2495 573e 6f8f d83e 5113 29bf d576 173d
00000100: a741 183d fe86 343d b445 e73b e60a 033e
00000110: fe1b 703e c160 dc3d d740 0ebe d159 ff3d
00000120: 1705 7dbd 402f 29be f96b 8a3d 3503 1b3e
00000130: e614 e5bd 680d cc3d 72e7 683d a3dc 4c3e
00000140: 5b31 0a3e bff8 143e 72bd d2bd d9f4 5bbe
00000150: a393 373d 1c2a 54bd 8eed e4bc cd29 af3b
00000160: 1143 c1bd da43 973d 9d25 01bd 863c 3d3d
00000170: f113 b23d b1ba 0ebe 4b59 b03c 8931 063c
00000180: 6f8a e2bd 0c47 ec3c 812e 003d aba6 dabd
00000190: abde 4d3c 14e1 c4bc 5c50 763e 46e8 95be
000001a0: 3968 91bc abdc 513e fd2d eebd 5304 bdbd
000001b0: ff4a dc3c 662d 71be 1cdd 3fbe c355 5cbd
000001c0: 53df 6cbd 3243 15be aebf 88bd adcb 9e3d
000001d0: 2ca5 f6bd 9709 a4be 5ce7 14bd 614f b2bd
000001e0: 0908 293b bf09 acbd a5cf 8d3e 331f 0b3d
000001f0: b5e0 34be b653 42be caf0 87bd d4bf 04be
00000200: 6b08 b2be 3df4 03be 216b 413e 33fe 2bbe
00000210: f08c 97bd 4592 eabe b162 883d 0a8c 82be
00000220: ef65 87bd a52e 8fbd 289a e8bd 89af 22be
00000230: 0299 cf3c 2061 7e3d 5a1d 20bd 6357 62bd
00000240: ae7d 073d acb1 133e 5344 fa3d d31e 7e3d
00000250: 1bfa 233d 460f 523e fe4b 823d 4af9 8d3e
00000260: 0483 c9bd f542 923d fdbc 543e 6f3c 1cbe
00000270: 4df5 433d b59b 07bd d915 f13d 9395 0cb9
00000280: 8fb9 a63b 6de5 3b3d db2e a6be 5a44 b5bd
00000290: 34b0 653d ff13 cf3e d381 463e 9441 4d3c
000002a0: faaa cabd 053f 3d3e 8c2e 76be 007c 0dbd
000002b0: 9ee6 e6be 8038 f4bd ae6b 2dbd a9b2 02be
000002c0: 0d6f 0f3e 2b14 7cbd 413c f1be 7c18 053c
000002d0: 0c96 afbe d567 b23e cb78 9fbe b487 813d
000002e0: 1eec 54be 987d 1ebe 8485 673e 75b3 b43d
000002f0: 3846 d4bd bdd3 8f3d cbfd 9ebd 7b2b 98bc
00000300: d53d 3d3f 1d95 bfbd ebd8 55bd 15e7 65be
00000310: a4b1 c7bc 8af1 95bd 882a 14be 84d0 98bd
00000320: a66b 003e ab08 393d 3e2a 383e 0287 44be
00000330: 2244 a9bc 5e82 af3c 4025 c33d 6ef7 913d
00000340: d2f1 f9bc 0a02 89bd 6fec 03be 105d e3be
00000350: 84bb 8cbe fe6e 54bb 3249 fc3c e6cb 42be
00000360: d06c 30be 3327 c13d a8de 97bb 9c01 213e
00000370: f759 72bc 0682 62bf b864 a13e 6ed6 253e
00000380: b622 55bd 9e5d 3c3d 030f 5a3c 26ed 8b3d
00000390: 34a3 e6bd 08a1 04bf 1419 4b3f 196e 19be
000003a0: 1fa6 c3bd 7e20 9d3e 211e 923d 24e8 253b
000003b0: c434 e63e e779 55be 9fed 473d a2bf b73c
000003c0: 1f89 823d a348 3cbd 2875 f5be 1b85 9d3d
000003d0: 8fd5 85be d1ff c53d 658b 0dbd 1a57 c03d
000003e0: ef80 5fbd 1d6e 013d a4e9 26be 2262 953d
000003f0: 5b0e 9abc 5229 14bf c94c 1fbc aefe eebc
0.008957889 0.057129193 0.021754952 -0.006598983 -0.07496011 -0.09788619 0.23456408 -0.19234076
0.1168898 -0.06836655 0.04078039 0.16515195 -0.19576325 0.16908956 -0.10673889 0.030426973
-0.43858907 -0.24241194 -0.12046625 -0.08851087 -0.23194912 -0.09770905 0.06622397 0.19331433
-0.09691804 0.20263019 0.0023509257 -0.20267497 0.014287051 -0.07736981 0.18267271 -0.28791654
0.092081234 0.00781971 -0.18763795 -0.20459421 -0.13991353 -0.22711034 0.14559042 -0.3835976
-0.392186 0.079752564 0.09245952 -0.003741606 0.041516427 -0.31606972 -0.0965426 0.0096302265
0.07680312 0.086030096 0.012417623 0.009703233 -0.12827924 0.15573719 0.01028962 0.007175149
-0.00046884024 -0.0027298203 -0.40032238 -0.18964425 0.21052986 0.4229693 -0.660451 0.03697856
0.037171986 0.04407405 0.00705787 0.12797126 0.23448178 0.10760642 -0.13891922 0.12468303
-0.061772432 -0.1652193 0.067588754 0.15137942 -0.11185627 0.099634945 0.05686135 0.20006041
0.1349539 0.14548014 -0.1029004 -0.2148012 0.04481853 -0.05179797 -0.027945306 0.005345559
-0.0943662 0.073859885 -0.03153001 0.046200298 0.0869521 -0.13938405 0.021526953 0.008190521
-0.1106156 0.028842472 0.03129435 -0.10676321 0.012565295 -0.024033107 0.24054092 -0.29278773
-0.017749893 0.20494334 -0.11629865 -0.092293404 0.02689123 -0.23552474 -0.1873669 -0.053792726
-0.057830166 -0.14576414 -0.06677185 0.07753692 -0.12043223 -0.32038566 -0.036353454 -0.087065466
0.0025792143 -0.084002964 0.27697483 0.0339653 -0.17663844 -0.18977246 -0.06637724 -0.12963802
-0.34772047 -0.12886138 0.18888523 -0.16796188 -0.073999286 -0.4581472 0.06659449 -0.25497466
-0.06611239 -0.069913186 -0.11357528 -0.15887274 0.025341514 0.062104344 -0.03909049 -0.05525912
0.033078842 0.14423245 0.12220063 0.062041115 0.04003344 0.20513639 0.063621506 0.27729255
-0.09839442 0.07141677 0.20775218 -0.15257429 0.04784136 -0.03310748 0.11771745 -0.00013407161
0.0050880383 0.045873094 -0.32457623 -0.08850928 0.056076244 0.40444943 0.19385462 0.012527842
-0.098958924 0.18481071 -0.24041194 -0.034542084 -0.45097822 -0.11924839 -0.04233902 -0.12763466
0.14007206 -0.06154267 -0.47116283 0.008123513 -0.34294164 0.34844843 -0.31146845 0.063247114
-0.20793197 -0.15477598 0.22609526 0.08823291 -0.10364956 0.07022808 -0.07763251 -0.01857542
0.73922473 -0.09354613 -0.052208822 -0.22451432 -0.024376698 -0.073214605 -0.1446935 -0.07461646
0.12541065 0.045174282 0.17984864 -0.19192126 -0.020662371 0.021424469 0.09528589 0.071272716
-0.030510817 -0.06689842 -0.12883161 -0.4440694 -0.27486813 -0.003241479 0.030796621 -0.19023094
-0.17229009 0.09431305 -0.004634697 0.1572327 -0.014791957 -0.8847965 0.31522155 0.1619508
-0.052035056 0.045987718 0.013309243 0.06832342 -0.11261597 -0.51808214 0.7933514 -0.14983405
-0.095531695 0.30688852 0.07134653 0.0025315369 0.44962132 -0.20847283 0.048810598 0.022430245
0.0637381 -0.04596771 -0.47940946 0.076914035 -0.26139495 0.09667934 -0.034556765 0.09391613
-0.05456632 0.031599153 -0.16300064 0.07294108 -0.018805673 -0.5787555 -0.009722897 -0.029174175

fc2.bias f4 [64]
00000000: 3d38 973b 826d a03d b79d d43c db21 c03c
00000010: 45fd 713e b990 b4bd 99c3 9ebd 1ca2 bfbd
00000020: 719c 9d3d c854 d63e d62f 51bd 80ea 903e
00000030: 23b7 073e fac2 38bd a550 c6bd 1816 c23d
00000040: 26e8 0f3a 56fc f43d 47cf dd3c 1d73 603e
00000050: 9467 5b3e b489 d53e 48fb fabd b0b0 a8bd
00000060: 00dc 11be d81b 22be ceac 933d c936 93bd
00000070: 8471 39bd e570 ae3e cee0 f83d a738 e33c
00000080: b03a acbc 697e 833e 1e27 983d 1f60 a23b
00000090: 439b 2cbd 5998 06bd 9986 623e 4a57 c43d
000000a0: b980 2bbe 287e e83e d677 a93e 50e4 6ebd
000000b0: 0056 f53c 433c 61bd 4a74 833e c597 cabd
000000c0: 74ad c7bd ff2a 42bc f46e 10be feed 9f3e
000000d0: b3fb 9abd 7127 e33b 567b a23e de5b fbbd
000000e0: f7f5 febd 1b1d e0bd 0b1b 1dbd a787 e6bd
000000f0: 3744 8b3d 7042 8b3e 4894 003e 2ae3 adbd
0.0046148584 0.07833387 0.02595411 0.023453644 0.23631771 -0.08816666 -0.07752151 -0.09357092
0.076958545 0.41861558 -0.05107101 0.2830391 0.13253455 -0.04510782 -0.096833505 0.0947687
0.000548961 0.11962192 0.027076377 0.21918912 0.2142623 0.41706622 -0.12254959 -0.082368255
-0.1424408 -0.15830934 0.07210694 -0.07188184 -0.045274273 0.34070507 0.12152253 0.027736975
-0.021024078 0.2568238 0.07429336 0.004955306 -0.042140257 -0.032860134 0.22121657 0.095869616
-0.16748323 0.4540875 0.3309924 -0.058323205 0.029948235 -0.05498911 0.2567466 -0.09892229
-0.097498804 -0.011851071 -0.14104825 0.3123626 -0.07567539 0.006932192 0.31734723 -0.12273382
-0.12449258 -0.109430514 -0.03835587 -0.112563424 0.0680012 0.27199125 0.12556565 -0.08490594

fc3.weight f4 [4, 64]
00000000: 23b9 813e 2e22 0d3e 4ceb eabd 87e8 ac3e
00000010: afb9 443e df2c 543e 78f1 debd a4cf 53be
00000020: 360f c23e 532a 123e 821b 7dbe 4ffa 9d3e
00000030: a36d 693d 60d0 ae3d 5ad0 ecbc a0a5 13bd
00000040: eca4 88bc b572 963e b78f 073e e851 383e
00000050: c10f ba3d 4a93 993e d406 45be 8ff0 38be
00000060: 9ef1 b1be ce18 813c c95f 8dbe 38a2 50be
00000070: 1c63 853e 240c 173e 03fd dd3b 6dec d93d
00000080: 93ef 6e3e 9c41 673e 65cb c93d 7713 3b3e
00000090: 00cd ff3d 0eaf 0d3e d8ff 413e 85d1 413e
000000a0: c47a 373d 5cfd 153e 957a ef3d 1d88 313e
000000b0: 14d9 953e 30e3 d1bd d405 1a3e 7de8 623e
000000c0: d21c 6fbe f1ae 5b3e 2f35 f5bd d9c9 8f3e
000000d0: 0be6 91be 9f0a 493e 0703 cf3d ea88 fcbd
000000e0: ecf4 b8be 8136 24be 06ef 1cbc e4ab 113d
000000f0: 775a e2be 1b8d 243e ed92 903d 2fc3 0fbd
00000100: 4194 6e3e 8984 cb3d d507 993d 4a2d f43e
00000110: fe28 4d3e a89b 823e deab 50be e7db a1be
00000120: 9488 8a3e dcfe d83d a424 753d 2393 803e
00000130: 3284 5c3d f39e 483e b514 13bd c41a 243e
00000140: 9466 ea3c a69d 613e edde a73e 45c9 363e
00000150: 91d3 1f3e 95e0 913e de39 6ebe 1c1e aebc
00000160: 6e5a 1fbe 78fe 65bd f616 05be 3304 e63d
00000170: 7e85 323e 4a72 223e 5ad2 683e 9777 e63d
00000180: 36fe b23d 38bb 293e d2ad 583e 3c20 223e
00000190: 9a72 b33d 2cd5 efbc 7e46 fb3d 771a 173e
000001a0: 423c c93d d60a 2d3e a94c 6a3d 9310 e83d
000001b0: 15d9 0b3f c653 4abe 3e6c 2b3e 4a28 4f3d
000001c0: afc4 22be 353d 3f3e edbb b0bd ebce 2a3e
000001d0: 972c 4fbd 9ace b53e 697a f33d 6025 a93b
000001e0: 3882 42be c826 4ebc d7cf 3d3d dad2 5ebe
000001f0: 1a88 8abc b35b a43d bb65 e33d 46ff 9ebd
00000200: d779 d7ba b20a 173e b3d2 093f 62fa 173f
00000210: d7ba 713e e113 513e 229e 06be f838 02be
00000220: a230 d83d 6ebb fd3d 5942 d9be 8413 6a3e
00000230: 5c03 453e 1fb4 03bd d5ee dcbd 5896 053e
00000240: b3b3 043f c16f ed3c 0e04 e73b 1b99 9c3d
00000250: f977 e83d ec14 a03e 1956 a0be bc20 c23d
00000260: e167 4ebe 5105 813d 2e4d 54be d9c6 fbbc
00000270: 4526 a13e 286f 653e 485f 713e 6a7b 40bd
00000280: 5f3b 1fbd fb8f 6a3e 5bcb 763e 8d60 0e3f
00000290: 7ebe 573e 51f7 603e 2c84 5c3e de39 ac3d
000002a0: 00c2 a23d f0f7 3c3e 378a e33d 8f6b 613c
000002b0: 43ed 77bd 2cb3 c0bd 421e 183e 5ff7 1a3e
000002c0: 3355 ba3d 20da 2fbd 5193 62be e865 923e
000002d0: 0d20 e1bd 4bc2 babc 4d24 e73d adbc cbbd
000002e0: 4a92 80be 5504 59bd bfe5 093e 7246 9cbe
000002f0: b9e2 94bd 3f0f 583e c757 9abe 6928 a7be
00000300: c137 d23e a254 5c3e 47b4 9dbe 3ae5 9fbc
00000310: b8a9 7d3d 25a1 b73e 1ff1 8fbe d426 0d3c
00000320: 3d50 be3d 8d49 563e 494e a03e 8ac9 af3d
00000330: 7dbd 313e dbbc e4bc 2259 ec3c 9937 43bc
00000340: 0a63 6a3e f64f d03d 57f9 973e ebf0 483e
00000350: 0ca1 953d 7062 c33e 8463 afbd b015 7e3e
00000360: ee2f e0bd 3d60 48be 4e79 fabc 255c 353e
00000370: cbeb 963e d93a 5f3d 5b11 103c d026 b23d
00000380: c693 6dbd 85e4 4c3e c8f6 cc3b 3f0f 543e
00000390: c93a 47bd 3986 373e 0678 603e 635e 943e
000003a0: b638 9dbd 3b09 6e3e 9336 423e a08e 30bf
000003b0: c757 2a3f e428 6ebe 20ef d63d 3231 333d
000003c0: 62c5 b3be 2ddb 9dbb 2c2e 883e 803f 573e
000003d0: 9bf5 f6be 4ff1 da3e 5d1d 253e f056 1f3e
000003e0: 9ff8 7dbe 8a53 ffbd 7fea 25bf 8591 9cbe
000003f0: 61b3 d4be e66d 0b3e 1f7b 02bf 750b 573e
0.2533656 0.1378257 -0.114706606 0.33771154 0.19211458 0.20720242 -0.108859 -0.20684677
0.3790223 0.14273958 -0.24717525 0.30855033 0.056989323 0.08535838 -0.028907944 -0.036046624
-0.016680203 0.2938439 0.13238417 0.17999995 0.09085036 0.29995185 -0.19240886 -0.18060516
-0.34754652 0.015758898 -0.2761214 -0.20374382 0.26052177 0.14750725 0.006774546 0.10640798
0.23333578 0.22583622 0.098532476 0.18269144 0.124902725 0.1383631 0.18945253 0.18927582
0.044794813 0.1464743 0.116933025 0.1733708 0.2926718 -0.10248411 0.15041286 0.22159
-0.23350838 0.21453454 -0.119730346 0.28083685 -0.2849582 0.19632958 0.10107999 -0.12330802
-0.3612436 -0.16036417 -0.009578472 0.03556432 -0.44209644 0.16069452 0.07059274 -0.03509825
0.23298742 0.099373884 0.07472197 0.47690803 0.20035169 0.2550938 -0.20378062 -0.31613085
0.27057326 0.105954856 0.059849396 0.25112256 0.05383701 0.19591884 -0.03590842 0.16025835
0.028613366 0.22032794 0.32787266 0.17850216 0.1560805 0.28491655 -0.23264262 -0.021254592
-0.1556184 -0.056150883 -0.1299704 0.1123127 0.17433736 0.1586391 0.22736493 0.11253279
0.08739893 0.16575325 0.21160057 0.15832609 0.08762093 -0.029276453 0.12269305 0.1475619
0.098259464 0.16898665 0.057202015 0.11331286 0.54628116 -0.1975852 0.1674051 0.050575532
-0.15895341 0.18675692 -0.08629594 0.16680495 -0.050579634 0.35509187 0.11888582 0.005161926
-0.18994987 -0.012582488 0.04634079 -0.21760121 -0.016910601 0.08025303 0.11103388 -0.07763533
-0.0016439509 0.14750174 0.53837126 0.5936643 0.2360643 0.2041774 -0.1314626 -0.12717044
0.10556151 0.12389265 -0.42433432 0.22859007 0.19239563 -0.0321542 -0.10787741 0.13045633
0.518367 0.028983952 0.007050044 0.0764639 0.11351008 0.31265962 -0.31315687 0.094789
-0.20156814 0.06299842 -0.20732567 -0.030734466 0.3147451 0.22405684 0.23571503 -0.046992697
-0.03887498 0.22906487 0.24101011 0.55616075 0.21068761 0.21969344 0.21534795 0.08409475
0.07947159 0.18453956 0.11110347 0.013758554 -0.060529005 -0.09409174 0.14855292 0.15133427
0.09098282 -0.04293263 -0.22126509 0.28593373 -0.10992441 -0.022797724 0.11286221 -0.099480964
-0.2511161 -0.052982647 0.13466547 -0.30522496 -0.072698064 0.21099566 -0.30145094 -0.32648018
0.41058162 0.2151666 -0.30801603 -0.019518483 0.061929435 0.3586513 -0.28113648 0.008615214
0.09292648 0.20926495 0.31309727 0.085833624 0.1735744 -0.027922085 0.028851096 -0.011915111
0.22889343 0.10171501 0.2968242 0.19623153 0.07306108 0.3816104 -0.08563903 0.2481296
-0.10946642 -0.19567962 -0.03057542 0.17710932 0.2947677 0.05449948 0.0087932 0.08698809
-0.058002256 0.20009048 0.0062550046 0.20708941 -0.048640046 0.17922296 0.21920785 0.2897826
-0.076768324 0.23245709 0.18966131 -0.6896763 0.6654019 -0.23257786 0.10494828 0.04374809
-0.3511153 -0.0048173876 0.26597726 0.21020317 -0.48234257 0.4276223 0.16124482 0.15560508
-0.24801873 -0.12467106 -0.6481094 -0.30579773 -0.41543105 0.13616142 -0.5096912 0.21000464

fc3.bias f4 [4]
00000000: 47df 953e ff6a 8a3e 7c2d 203e f0a0 3d3e
0.2927191 0.27034757 0.15642351 0.18518424
