checkpoint_ddqn.pth (torch_old, 28405 bytes, 6 tensors)

fc1.weight f4 [64, 37]
000000 45 49 52 3c 86 ac b9 3d c0 31 d5 ba fa 41 b9 be
       0.012834852 0.09066109 -0.0016265437 -0.3618315
000010 5a 6b 98 be da 1f 00 3e 69 1f 76 bd e8 c4 0c 3e
       -0.29769403 0.1251215 -0.06008855 0.13746989
000020 26 e8 a1 3d 21 5a 91 be 38 e6 7c be a1 13 14 3e
       0.07905607 -0.28389075 -0.24697196 0.14460613
000030 12 36 a2 bd 29 b5 82 be 24 c2 bc be 9b 1f 9b 3c
       -0.07920469 -0.2552884 -0.36866868 0.01893597
000040 29 4f c2 3d 1b c0 10 be 20 62 92 3d 76 96 29 be
       0.09487755 -0.14135782 0.07147622 -0.16561303
000050 7d ae 8b bc 0b e8 3b 3e e1 22 34 3d 0c 0b e2 3b
       -0.017050976 0.18350236 0.043978576 0.0068982895
000060 73 4e d5 be 83 fb 61 3d 70 21 08 3d 59 ef b0 3d
       -0.41661415 0.0551715 0.033235013 0.08639402
000070 af a4 2b be 11 39 4f be e0 7a c6 3d f8 cb 99 bc
       -0.1676204 -0.20236613 0.09691405 -0.018774018
000080 52 51 29 be 17 57 57 bd b7 44 84 be 77 df 42 3b
       -0.16534927 -0.05257329 -0.25833675 0.0029735246
000090 98 a0 2c bc 57 d9 30 3e 19 49 03 3e 52 b0 0c 3e
       -0.010536335 0.17270409 0.12820853 0.13739136
0000a0 7a d8 a9 bc 79 28 11 be ba 1c 02 be 41 8e 84 bd
       -0.020733107 -0.14175595 -0.12706271 -0.06472445
0000b0 51 ca ea 3b 58 d1 97 3b a0 73 04 3e 99 69 c8 3d
       0.0071652313 0.00463311 0.12934732 0.09785766
0000c0 45 9c a8 bb 9d d8 47 3d c3 d9 1d 3e ab e6 ed 3d
       -0.005145582 0.048790563 0.15415101 0.11616262
0000d0 25 b2 7a 3e c8 be 91 3d f4 d2 c3 bb 79 80 3a be
       0.24482019 0.07116467 -0.0059760753 -0.18213071
0000e0 75 f8 2a bf 31 2e 88 bd 46 33 dc 3c b2 e5 96 bd
       -0.66785365 -0.06649435 0.026879918 -0.0736803
0000f0 de 44 ce bd fe 4d af bc e3 6d f1 bd 03 51 c4 3d
       -0.10071729 -0.021399494 -0.11788537 0.09585764
000100 09 a5 89 3d 5e cd 2c 3e c9 19 5e 3e f5 52 07 3d
       0.06720931 0.16875216 0.21689524 0.0330381
000110 d0 0c 85 3e 84 4b 07 3e 86 18 10 be d9 03 50 be
       0.25986338 0.132124 -0.14071855 -0.20313968
000120 95 ee 4f 3d c3 d1 e4 3c 6d b3 80 bc 0a 0a 03 3e
       0.05076464 0.027932053 -0.015710557 0.12796798
000130 c7 ad 95 3d e5 4d 04 bd c1 7f 70 3d 93 5f 08 bf
       0.07308536 -0.03230085 0.058715586 -0.53270835
000140 98 66 cc bd cd d0 73 3e 6b 74 38 3d 08 94 a7 be
       -0.09980506 0.2381012 0.0450329 -0.32730126
000150 c9 f1 31 bd 97 b1 2a be ab 37 ee 3c 8e 04 58 3d
       -0.043443475 -0.16669308 0.029079279 0.05273872
000160 32 8c 9c 3e b1 1a e3 be 3d b1 f6 3d dc 11 6e 3d
       0.3057571 -0.443563 0.12045524 0.0581225
000170 5b dc d6 3d 04 7f fd 3d d1 37 db be ea 51 50 bd
       0.10491248 0.12377742 -0.42816022 -0.05085937
000180 14 cd 1a 3e 15 d6 c7 bc f0 d9 01 be ba 9f ee bd
       0.15117294 -0.024394074 -0.12680793 -0.11651559
000190 fb 03 88 3e 20 47 3e bd dd fe 42 bc 98 23 5f bd
       0.26565537 -0.04645455 -0.011901584 -0.054477304
0001a0 ce 07 09 bf 47 d0 8c 3d 5f ba 96 bc 8b 23 61 be
       -0.53527534 0.06875663 -0.018399416 -0.21986215
0001b0 b7 1e ea 3c d4 fc a7 3d 60 d1 04 bd ee 9c 88 3d
       0.0285791 0.0820252 -0.032426238 0.06670557
0001c0 d1 63 36 be 31 80 4f 3e 53 7d 5f 3e 35 b5 d7 be
       -0.17811514 0.20263745 0.21825151 -0.42130437
0001d0 4c e7 f1 bc 62 86 79 bd 66 fe f2 3d 9d 9e 31 bc
       -0.029529236 -0.060919173 0.11864929 -0.010841039
0001e0 85 e1 5a 3d d8 0f 89 3d d1 fa 58 be 21 d7 24 be
       0.05343773 0.06692475 -0.21189429 -0.1609769
0001f0 14 96 74 3e 52 c3 95 3d 3d 66 a7 be 19 26 c4 3d
       0.23885375 0.07312645 -0.3269519 0.09577579
000200 2e 56 30 3e 1e 74 46 be 79 6c ef bd 14 43 95 3d
       0.17220375 -0.19380233 -0.116906114 0.07288185
000210 68 e2 19 bd 1f 0f f3 bd 85 9c f2 3d b2 83 25 3e
       -0.037569433 -0.118681185 0.1184626 0.16163519
000220 5c 20 bf bd 5e f7 36 3e 44 8e 54 3d 4a f0 02 3c
       -0.09332344 0.178678 0.051893488 0.00799186
000230 f6 8e 8f bd ea df c9 3d 59 4a 05 3e 83 45 f0 bc
       -0.070096895 0.09857161 0.13016643 -0.02933002
000240 db d1 31 bd 98 d4 6a be e7 06 1e 3e 33 7e e2 bb
       -0.043413024 -0.2293266 0.1543232 -0.006912017
000250 f4 7a 4f bd d9 fe 63 be dc d6 46 bd cb fa 33 be
       -0.050654367 -0.22265185 -0.04854475 -0.17576139
000260 4d a9 bf be 16 42 c4 3d 5a 04 65 3e 4c 44 0b be
       -0.37433854 0.095829174 0.22364941 -0.13600272
000270 fc 5b f9 bd 01 b4 f2 be 89 25 e3 bd 1f 1e c1 3d
       -0.12175748 -0.47402957 -0.11091144 0.09429573
000280 c7 6d 7d 3c 6c 3f 65 be 4e d3 5e be fa ec b3 bd
       0.0154680675 -0.22387475 -0.21760294 -0.08785434
000290 f2 c0 d0 3d 9e 28 97 bd 3a ba e5 bd db a3 cf 3d
       0.101930514 -0.07380794 -0.112171605 0.10138675
0002a0 89 04 9c bd fa 57 31 3c f7 cd 11 3e e2 d4 aa bc
       -0.076180525 0.010824198 0.14238726 -0.020853464
0002b0 45 2d a8 3d 53 7d f0 3c 4f 5a 58 bd bf 12 80 3d
       0.082117595 0.029356634 -0.0528205 0.062535755
0002c0 f3 b4 0f 3e 5c e6 88 3e 25 76 af 3d cb 81 a3 bb
       0.1403387 0.2673825 0.08567456 -0.0049898378
0002d0 14 8d 78 3c a2 69 2c bd 3d 19 db 3e 94 08 06 bd
       0.015170354 -0.042092927 0.42792693 -0.032723024
0002e0 60 aa c5 ba b8 b8 3a 3d 2a e5 30 3d f2 2a 22 bd
       -0.0015080683 0.045586318 0.043187298 -0.039591737
0002f0 21 d1 87 3a a6 ac c9 3d f5 26 cd 3e 20 e8 d7 be
       0.0010362008 0.09847383 0.40068784 -0.42169285
000300 3b 85 f9 be d6 7e d7 be e1 0c dd bf d6 f8 12 bc
       -0.4873446 -0.42088956 -1.7269555 -0.00897046
000310 70 24 36 bb 3d e4 19 3d 36 cf 81 bd 6e 44 0a 3d
       -0.0027792715 0.03757118 -0.063383505 0.033756666
000320 26 38 9e bb ad 8b 83 3d d8 8c b5 3b ed 2d 1b 3c
       -0.0048284708 0.064231254 0.0055404715 0.009471399
000330 41 56 9d bd 21 47 1c 3e df b1 c3 3d 5c 9d d6 3d
       -0.07682467 0.15261509 0.095554106 0.10479233
000340 26 cb 0b 3e 47 77 e1 3d c5 1a 21 3d 43 02 1a bd
       0.13651714 0.110090785 0.03933217 -0.037599813
000350 83 cf 9f 3d 80 60 85 bc 44 df 5d bc c7 8f 15 bd
       0.078032516 -0.016281366 -0.013542 -0.03651407
000360 83 f2 27 ba 5e 07 94 3d de 69 4b 3e c2 e3 2f 3e
       -0.00064066815 0.07227968 0.19864604 0.17176726
000370 36 65 cb bb be 3c 31 3c e4 9d a3 bc dc 87 bc bc
       -0.0062071336 0.010817705 -0.019972749 -0.023014002
000380 c7 57 52 be 97 00 65 3e 88 b2 10 be 22 0f 31 be
       -0.20541297 0.22363506 -0.14130604 -0.17290929
000390 8c bc 0e be 0d b4 b3 3d 29 11 01 be 92 2d a5 3e
       -0.13939112 0.08774576 -0.12604202 0.3226133
0003a0 a5 74 bb bd 65 45 07 3e 5b 86 8a 3e 45 d1 8f be
       -0.091531076 0.13210066 0.2705563 -0.28089347
0003b0 19 8c bd 3d 35 30 86 bd a8 c4 f3 be 68 59 ad 3d
       0.09255237 -0.065521635 -0.47610974 0.084643185
0003c0 31 1e 14 3e aa 8e 9b 3e 1b 0c 34 be 98 2d e3 bb
       0.14464642 0.30382282 -0.17582743 -0.0069329254
0003d0 67 67 64 3d 10 7e b8 bc fa cc 50 3e 2f 4f 91 be
       0.055762675 -0.022521049 0.20390692 -0.28380725
0003e0 81 8e 32 be ff a8 50 3c c5 86 73 3d 53 65 dd 3d
       -0.17437173 0.012735604 0.059454698 0.10810342
0003f0 bc 6d 28 bd 0a 3a 53 bb 68 e1 07 3d 16 c1 1a be
       -0.041120276 -0.003223064 0.03317395 -0.15112719

fc1.bias f4 [64]
000000 a6 7b 24 3e d3 a5 b8 3c 36 ac 36 be 95 96 94 bd
       0.16062793 0.022540009 -0.17839131 -0.07255284
000010 f8 c9 24 3e 67 e6 02 3d 17 ec e9 bd 0d 1d 8f 3d
       0.1609267 0.03195801 -0.11421984 0.06987963
000020 81 4a 7f bd f8 71 89 be 83 93 1c 3e 60 08 de 3d
       -0.06232691 -0.26844764 0.15290646 0.10841441
000030 d6 64 08 3e 86 67 2e 3e 59 53 b8 bd 98 81 80 bd
       0.13319716 0.17031679 -0.09000272 -0.06274718
000040 9b 13 60 bc e0 dc 2f bd f4 f4 a2 bc 56 bb 04 be
       -0.013676549 -0.042935252 -0.019892193 -0.12962088
000050 62 cb 15 be 7a 39 96 3d 59 4c 50 bd e2 eb ac bd
       -0.14628366 0.073351815 -0.05085406 -0.084434286
000060 e4 ee 52 bd 35 3b 0e 3e 7d 3a 9d 3a cc 6d 36 be
       -0.051497355 0.13889773 0.001199558 -0.17815322
000070 09 a4 1d 3e 13 9b 32 3e 09 3d e2 bd bb dc 3c be
       0.15394606 0.17441969 -0.11046798 -0.18443577
000080 b7 f1 53 3e a1 e2 4a bc eb f9 1c be 8e e6 ef 3d
       0.20697676 -0.012383134 -0.15329711 0.11713897
000090 72 cb c3 bd b7 be 88 3c 07 11 2e bd 0b ad 0e be
       -0.095602885 0.016692502 -0.042496707 -0.13933198
0000a0 55 21 4d bd 57 2e ae 3c 74 81 f9 bd 72 a1 65 3e
       -0.050080616 0.021262331 -0.12182894 0.22424868
0000b0 73 f2 15 bb b4 38 25 bd b8 7e 36 3d b7 d1 ed bd
       -0.0022880107 -0.04033728 0.044554442 -0.116122656
0000c0 c7 87 06 be c3 38 f8 3d 72 86 5e be dc 8d 36 3c
       -0.13137732 0.121202014 -0.21730974 0.01114222
0000d0 3b e8 e3 bb a6 55 75 bd 65 0c 3e be df 2d 01 3d
       -0.0069551743 -0.059896134 -0.18559416 0.031537887
0000e0 4d d1 09 3e 73 98 cc 3c 42 97 e2 bd ed 87 cd bd
       0.13458748 0.024975037 -0.110640064 -0.100356914
0000f0 0c 26 fa 3c 49 68 dd 3d b6 58 bb 3d 9b 5f 4d 3d
       0.03053572 0.108109064 0.0914778 0.050140005

fc2.weight f4 [64, 64]
000000 cb a7 a3 be ce 79 f9 bd 93 18 6e be 9b bc 37 3e
       -0.31963953 -0.121814355 -0.23251562 0.17943041
000010 b1 c4 5c 3e 36 3a e7 bd d1 f8 2b be b5 15 76 bc
       0.21559407 -0.112904 -0.16794135 -0.015019824
000020 84 25 8f 3d 43 35 32 ba 67 21 7e be 97 50 6d be
       0.069895774 -0.0006798098 -0.2481743 -0.23175274
000030 d7 16 e6 be d3 e2 1e 3e dd fa 51 be d4 ac 0c be
       -0.449393 0.15516214 -0.20505853 -0.13737804
000040 e3 ca ab be df 6d 6c be e6 03 92 be af 7f 34 3e
       -0.33553228 -0.23088787 -0.285186 0.17626832
000050 21 19 ef bd 45 f1 73 be cb 16 b0 be e0 35 95 be
       -0.11674715 -0.23822506 -0.3439239 -0.29142666
000060 14 91 89 be ee 2f 0c 3d 51 c0 67 3e 6c bd 6b be
       -0.26868498 0.034225397 0.22631957 -0.23021477
000070 b0 42 93 be bd 1c c9 3c 15 e4 09 3d b4 e2 2e be
       -0.28761816 0.024549836 0.03366478 -0.17078668
000080 c0 83 8b bd de 6c ab bb 99 f0 f3 bc 8a 62 99 3d
       -0.06812239 -0.005231484 -0.029777812 0.07489498
000090 70 92 91 be 82 ba 04 3e 11 16 6f 3e e2 42 81 bd
       -0.28432035 0.12961772 0.23348261 -0.06311585
0000a0 9a 9a ae be a2 95 cb bd 7b 33 e2 bd fa 91 1b be
       -0.34102327 -0.099406496 -0.11044975 -0.15192404
0000b0 d8 01 56 3d f0 f4 da bb 94 4b b9 be e4 67 45 3e
       0.052247852 -0.006682031 -0.36190474 0.19277912
0000c0 65 05 87 bd 67 90 5b be 1f 1a 26 be 15 61 4f be
       -0.06592826 -0.21441804 -0.16220902 -0.20251878
0000d0 2b c2 51 be bc 8f 83 3c b8 af 92 3c 34 21 85 bd
       -0.20484225 0.016059749 0.017906055 -0.065004736
0000e0 fa 7c 33 bd 77 16 d4 bd c4 50 88 be 38 38 f1 3d
       -0.04382036 -0.10355847 -0.2662412 0.11778301
0000f0 e0 fc f8 3d b5 f1 1a 3d c9 15 3b be 73 a8 96 3d
       0.12157607 0.037828166 -0.18270029 0.07356348
000100 15 68 9f 3d 2f 75 55 3e 8e 85 1f be af d2 11 3e
       0.07783524 0.20845483 -0.15578291 0.14240526
000110 24 c8 8e 3d c5 d7 c0 3c e1 2e e9 3d c8 bf 2d 3d
       0.069717675 0.023540387 0.113858946 0.042419225
000120 0f 76 67 bc 4e 39 d0 3b af 8e 91 3e f3 62 26 3d
       -0.014127268 0.0063544875 0.2842917 0.04062171
000130 cd dc f8 3c a6 9d d7 bc 7f 62 c6 be 4b ff 32 3e
       0.030378724 -0.02632029 -0.38747022 0.17480199
000140 ea ca 0c 3e 31 2f 72 3d ac 66 71 3d 9b 1d 26 be
       0.1374928 0.059127036 0.058935806 -0.16222231
000150 40 c5 c1 bb 05 29 75 bd e6 07 3c 3d c7 4b 1c 3c
       -0.0059134066 -0.059853572 0.04590597 0.009539551
000160 b3 19 91 bd 0d 5e 4f bd c5 2b 01 bd aa 51 ce bd
       -0.0708498 -0.050626803 -0.031535883 -0.1007417
000170 18 0b 95 3c f4 18 82 3c 55 7a a4 bd ee 28 0d be
       0.018193766 0.01588104 -0.080311455 -0.13785145
000180 0b 9a 22 3d 5b 2a b4 3d 98 ce 55 bd 4b 33 94 be
       0.039697688 0.08797141 -0.052198976 -0.28945383
000190 1d 42 26 bd ba 39 08 3e 1a 6a ed 3e 37 a4 86 bd
       -0.040590394 0.13303271 0.46370012 -0.0657429
0001a0 56 03 90 3d 4a 58 90 be 1b 02 0b be ee ac 19 be
       0.07031886 -0.2819236 -0.13575022 -0.15007374
0001b0 71 06 8a be 17 da 70 bd 0c cf 78 bd 1f cf 41 be
       -0.2695804 -0.058801737 -0.06074433 -0.18926667
0001c0 ee f9 ea bd 35 95 0d bf d1 92 98 3d df e3 2c bc
       -0.114734516 -0.55305797 0.07449878 -0.010552376
0001d0 ff 1c de 3d c6 d5 ab 3d dd d4 7a bd 42 54 c8 3c
       0.10845374 0.083903834 -0.06123816 0.02445424
0001e0 0f f9 cc be b5 76 0a bd a5 8d ec 3e 3f 0e f0 bd
       -0.40033767 -0.033804614 0.46201816 -0.11721467
0001f0 1b 71 32 be 76 38 fb 3a 37 31 65 bd 86 e4 97 bd
       -0.17425959 0.0019166607 -0.055955138 -0.07416634
000200 2e 5d 90 be 2f 97 14 be e5 a7 0c be eb 59 ac 3b
       -0.2819609 -0.14510797 -0.13735922 0.0052597425
000210 2c 8b 33 3c 9e bd 1a 3e 68 9e a4 bc f9 ef 80 bc
       0.010958474 0.15111396 -0.020095065 -0.015739428
000220 a1 70 13 3e c0 7e 64 3d 71 da 6c 3e e4 7d 4f bd
       0.14398433 0.05578494 0.23130204 -0.050657168
000230 11 21 09 3e 55 4f 12 3e d4 20 8f 3d 14 72 9d bd
       0.1339152 0.14288075 0.06988683 -0.07687774
000240 2e 12 18 bd c2 2d a4 3d 4c d5 bb 3d c6 d5 90 be
       -0.037126713 0.0801654 0.091715425 -0.28288096
000250 08 46 a8 bd b4 a6 0a 3e 15 49 78 bd 07 8b e6 3c
       -0.082164824 0.13540155 -0.06061657 0.028142465
000260 d6 d5 4f be a1 e9 42 3e ad ac 89 3e b6 66 8d 3d
       -0.20296416 0.19034435 0.26889554 0.06904356
000270 94 d7 b8 3c 2a 2e 02 3e 5a f9 28 bd 89 45 e8 3d
       0.022563733 0.12712923 -0.041253425 0.11341388
000280 c7 82 71 3d 97 ae ed 3d 93 56 b6 3c d3 ba 42 3e
       0.05896261 0.11605566 0.022258079 0.1901658
000290 d3 82 02 3e 52 d6 0c bd f4 87 ae be 97 ec 8a 3d
       0.12745218 -0.03438408 -0.340881 0.06783407
0002a0 f6 d4 82 3e f4 5b 84 3e 05 96 34 bd 92 f7 32 bc
       0.255531 0.25851405 -0.044088382 -0.010923283
0002b0 26 c8 93 bd ef 0c ed bc d0 a7 97 3d 88 a8 d2 bd
       -0.0721591 -0.028936831 0.074050546 -0.10286051
0002c0 b6 ad d7 3c 44 0b 95 be 13 f4 25 be 54 18 9a 3d
       0.026327949 -0.29110157 -0.16206388 0.075241715
0002d0 df 63 af bd 02 0e 6a be 49 fb d5 bd 2f ca aa bd
       -0.08563971 -0.22856906 -0.104483195 -0.08339345
0002e0 99 b5 04 3e b0 14 df bd 46 94 a9 3e bc 77 a1 ba
       0.12959899 -0.10892618 0.33120936 -0.0012319009
0002f0 94 9b b3 bd f6 e0 9c 3e 0b 8d 00 be 10 51 b8 bd
       -0.087699085 0.30640382 -0.12553804 -0.089998364
000300 c2 d7 00 bd e1 1c fb bd af 40 21 bd 25 ef bb 3d
       -0.031455763 -0.122613676 -0.039368328 0.091764726
000310 6f 16 c8 be 7b 09 75 be e3 29 e4 bd a1 f0 5c 3d
       -0.39079615 -0.23929398 -0.11140802 0.05394042
000320 2e 6e ab be 77 36 00 bd 65 1d 06 bd 86 c6 51 be
       -0.33482498 -0.03130194 -0.032742877 -0.20485887
000330 04 d5 fb bd 61 e9 2c 3e a5 c1 ef bc 14 63 11 be
       -0.12296489 0.16885902 -0.029267142 -0.14197952
000340 e2 b9 59 3d a0 1b 63 3c 5d 71 cf bd 8e 37 1f 3d
       0.053155787 0.013861567 -0.10129044 0.03887134
000350 6b 8e 93 bd 7c 79 87 bc b5 7e 16 3e 81 af 2b 3e
       -0.072048984 -0.01653742 0.14696772 0.16766168
000360 14 3c 38 3e 17 cb 18 3e a3 0d 7e 3e ba fe ec 3d
       0.17991668 0.14921223 0.2480989 0.11572023
000370 1d b8 09 3e 06 c6 80 be 25 33 9f 3e ea 50 d2 bd
       0.1344914 -0.2515108 0.31093708 -0.102693394
000380 c8 92 a8 bd 07 1d 57 bd 9e 81 54 3d 0b 03 3e 3e
       -0.08231121 -0.052517917 0.051881425 0.18555848
000390 03 bc 66 be 38 b5 95 3d f9 ca 4d 3e c3 7a b4 be
       -0.22532658 0.07309955 0.20096959 -0.3524991
0003a0 25 7c ce bd e6 86 50 3e 36 b3 9e be 80 75 c3 bc
       -0.100822724 0.2036396 -0.30996102 -0.02385974
0003b0 4b f3 28 be a5 e3 7a 3d 5d c4 be bd fb 9e b7 bc
       -0.16499059 0.061252255 -0.09314797 -0.022414675
0003c0 8d c3 cc bc b6 22 25 3d dd ec d1 be 2d 61 3f 3e
       -0.02499559 0.040316306 -0.41001025 0.18689413
0003d0 d3 b2 dd bd d3 7e a8 bd e8 97 15 be 66 e9 9b bc
       -0.10825124 -0.08227315 -0.14608729 -0.019032191
0003e0 b5 3c c2 bd da d9 d6 bd a2 8c 7a be 20 20 2a 3d
       -0.09484235 -0.10490771 -0.2446771 0.041534543
0003f0 ff a2 85 bd 31 5d 40 3d d4 64 96 be 06 6d 1f be
       -0.0652523 0.046963874 -0.293738 -0.15568933

fc2.bias f4 [64]
000000 fb 8c c3 bd 21 13 ad bd 1e 06 d8 3d 0e 19 ec 3c
       -0.09548374 -0.08450914 0.10548042 0.02882054
000010 44 7e a0 3e 6d f0 4b be b4 44 fb bd d4 f0 52 3e
       0.31346333 -0.19915934 -0.122689635 0.20599681
000020 2b 4e 35 3e d0 d2 a5 3e 71 c7 37 bd 1b 9f 33 3e
       0.177056 0.323874 -0.044867937 0.17541163
000030 98 df 82 3e 0d 3d 27 bd 1a 05 1f be bc a8 05 3e
       0.25561213 -0.040829707 -0.1552929 0.13052648
000040 11 82 5a 3c b6 c2 bf bd 1c c1 3e bd 83 8f 4a bd
       0.013336674 -0.0936331 -0.046570882 -0.04945327
000050 a4 e0 f5 3d cd 7a 09 3f 1e fa 3d be cf f7 0e bb
       0.120057374 0.53703004 -0.18552443 -0.0021815186
000060 53 df b5 bd e1 68 5f bd 79 c6 d1 3d 9b b5 0a bd
       -0.08880486 -0.05454338 0.10242934 -0.0338646
000070 0d 77 38 bd 97 aa 54 3d c3 56 15 3e ae 25 7e bd
       -0.04503541 0.0519205 0.14583878 -0.062047653
000080 e3 2c 8c 3d 7f 37 b5 3d fe 46 38 bd c5 ce f3 bd
       0.06844499 0.08848476 -0.04498958 -0.119046725
000090 eb de 16 be cc 1b 57 be 6f 8d de 3d 4d f4 83 bb
       -0.14733474 -0.21006697 0.1086682 -0.0040269257
0000a0 25 76 bf bd 47 b9 fe 3e b1 c2 3d 3d 47 1e 97 bd
       -0.09348706 0.4975073 0.04632825 -0.07378822
0000b0 2a 06 e6 3d 1d 14 e1 bc c3 2a 88 3b 92 a3 19 be
       0.112316445 -0.027475411 0.004155488 -0.15003803
0000c0 65 8b d8 3d 67 23 dc bb a7 de ce bd f1 c2 ab 3e
       0.105734624 -0.0067180875 -0.10101061 0.33547166
0000d0 f2 8c be bd 23 66 6b bd 4e 36 8b 3d 3c f5 9a 3d
       -0.09304227 -0.057470452 0.06797467 0.07566306
0000e0 64 d6 09 be bb 08 2f be 2a d1 06 3d ff 77 c9 bd
       -0.1346069 -0.17093174 0.03291432 -0.098373406
0000f0 7e 53 78 bc 5e 60 22 3e 14 60 c1 3d f2 09 73 3c
       -0.015156625 0.15857074 0.094421536 0.014833914

fc3.weight f4 [4, 64]
000000 20 e9 51 be 36 ab db 3d b1 85 4e 3e 62 18 c8 3d
       -0.20499086 0.10726015 0.20168187 0.09770276
000010 7e c3 5d 3e 9f 42 53 be e6 a8 a9 3d 5f 84 eb bd
       0.21656606 -0.20630883 0.08284168 -0.11499857
000020 43 fc 16 3e 6a 74 40 3e df 55 05 3e 2e 7b 19 3e
       0.14744668 0.18794408 0.13021038 0.14988396
000030 1f 96 ce 3d 9d 37 e6 bd e2 af 88 be e3 6b f0 3d
       0.10087227 -0.11241076 -0.26696688 0.11739328
000040 bf 62 13 be e0 b6 2c be b0 99 6d be 17 9c 14 bd
       -0.14393137 -0.16866636 -0.23203158 -0.03628167
000050 d6 db 1d 3e ee ed 56 3e 9f 53 52 be e9 3d 82 3d
       0.15415892 0.209892 -0.20539711 0.06359465
000060 6e aa 4f 3e 7f d1 fe be 4e bf 9a 3e ea 62 28 3e
       0.20279858 -0.49769208 0.3022408 0.16443983
000070 04 00 32 3e e2 98 3f 3e 96 da 10 bf 39 3d e5 3e
       0.17382818 0.18710664 -0.56583536 0.44773272
000080 a1 b6 03 3e c4 e2 c5 3e f8 42 fd bc db 0c ea bd
       0.12862636 0.3864957 -0.030915722 -0.11428233
000090 cc 16 67 bc 27 96 93 be cf 66 3e 3e 7e 05 1a 3e
       -0.014104556 -0.28825495 0.18593906 0.15041158
0000a0 98 04 0b 3f 72 65 49 3e 0b a8 3b 3d 33 f6 84 3c
       0.54303885 0.19667605 0.045814555 0.016230678
0000b0 21 c4 1a 3e 4a c1 00 be 7a da 32 3e 52 b0 37 3e
       0.1511388 -0.12573734 0.17466155 0.17938355
0000c0 4a 6d c9 3e 47 6b 51 3e 42 35 f3 3e da 28 70 3e
       0.39341193 0.2045108 0.4750157 0.23453084
0000d0 0f 94 e6 3e 75 48 3e 3e ae c9 bf 3d 44 30 a3 3c
       0.45034835 0.18582328 0.09364639 0.019920476
0000e0 37 25 1f bf b4 ac a6 bd a6 c0 b0 3e a6 5a 9f 3d
       -0.6216616 -0.08138409 0.3452198 0.07780962
0000f0 ee 53 24 be 01 4b 86 3e 4a 1d b0 3e 98 0c 37 3e
       -0.16047642 0.26229098 0.34397346 0.17875898
000100 96 9b 82 3d e2 00 0f 3e 32 81 2d 3e 59 1c e7 bd
       0.06377332 0.1396518 0.16943815 -0.11284704
000110 b1 86 3e 3e 41 63 13 be 7d aa 13 3c 44 1e 1b 3e
       0.18606068 -0.14393331 0.009012816 0.15148264
000120 da 20 b5 3d 6b 01 65 3e a6 5e 72 3e 59 d9 14 3e
       0.088441566 0.22363822 0.23668918 0.14536037
000130 da a7 e7 3d bf c0 46 3e 80 3f 72 be 0b c4 09 3e
       0.11311312 0.19409464 -0.23657036 0.1345369
000140 33 5c 2b bc 48 cf 93 bd b3 9c 56 be 5b 37 c5 3d
       -0.010458994 -0.0721727 -0.20958214 0.09629699
000150 df bc 0a 3e c9 a0 60 3e 0c be d4 bc 18 25 03 3e
       0.13548611 0.21936335 -0.025969528 0.12807119
000160 24 d9 45 3e 06 9e a8 bd 46 f1 df 3e fc a6 dd 3d
       0.19321114 -0.082332656 0.43738765 0.10822865
000170 5d 58 0d bf 30 f2 04 3f 28 d8 5b 3d af e2 b2 3e
       -0.55212957 0.5193205 0.05367294 0.3493857
000180 44 6e 0e 3e 92 b9 94 3e b6 7f 9a 3d 83 72 e2 bd
       0.1390925 0.2904783 0.0754389 -0.110569976
000190 54 a5 19 3e a2 e9 4a be 60 e3 74 3e 00 36 e1 3d
       0.15004474 -0.19815686 0.23914862 0.10996628
0001a0 04 3c d7 3e fa 84 26 3e e7 e8 9e 3d b3 c2 b4 bd
       0.42037976 0.16261664 0.07759266 -0.088261984
0001b0 09 e4 22 3e ec 8f 33 bd 00 0e 3f 3e 00 5c fb 3d
       0.15907301 -0.043838426 0.18657684 0.12273407
0001c0 cf 0b a6 3e 7a 78 21 3e 0e 87 00 3f ef 60 31 3e
       0.32430884 0.15768614 0.5020608 0.17322133
0001d0 a3 8e bf 3e 1c f6 81 3e 3b 3b 17 3e 1f eb 33 3d
       0.3741351 0.2538308 0.14768688 0.0439254
0001e0 23 42 df bd 96 7c 41 be a6 46 b5 3e 7f 96 c0 ba
       -0.109012865 -0.18895182 0.35405463 -0.0014693289
0001f0 7f 74 02 be 27 4a db 3c 6f bb d9 3e da ec 6d 3e
       -0.12739752 0.026768757 0.42525813 0.23234883
000200 0e 0f 50 3e b9 e4 57 3e d2 9c 54 3e e4 c5 13 3e
       0.20318243 0.21083345 0.20762947 0.14430958
000210 5a c8 b2 3e 0b 84 1c bd de fc d7 3d 7f e3 00 3e
       0.3491848 -0.038211863 0.105462775 0.12586783
000220 7e c0 0c 3e 70 a2 60 3e ca ec 55 3e 56 8d 78 3e
       0.13745305 0.21936965 0.20891109 0.24272665
000230 06 fd 73 3e b0 0f 9e be 1a 08 11 3e 4c 23 30 3e
       0.2382699 -0.30871344 0.14163247 0.17200965
000240 f5 8d 97 bc 63 f7 1b be 98 6b f1 bd 8f 74 96 3e
       -0.018500308 -0.1523109 -0.117881 0.29385802
000250 64 c2 11 3e 7b e2 44 3e 81 e4 d9 bd a7 5a ce 3d
       0.1423431 0.1922702 -0.10639287 0.10075884
000260 22 51 bb 3e d0 75 a8 bc bf fb d0 bc 1e 4e 7e 3d
       0.36585337 -0.02056399 -0.025510667 0.062086217
000270 12 11 08 3d 71 35 52 3f df f8 b0 be 7c f5 40 3e
       0.033219405 0.82112795 -0.34564874 0.18843645
000280 69 31 1b 3d b6 bb 08 3e 00 ec 8f 3e 06 a5 60 3d
       0.037888918 0.13352856 0.2810974 0.05484488
000290 c5 17 d0 be 68 95 29 be be 76 65 3e 76 a6 ab 3d
       -0.40643135 -0.165609 0.22408578 0.08381359
0002a0 fb 7c 21 3f 2a 60 26 3e e9 d2 08 3e 0e da d5 3d
       0.6308133 0.16247621 0.13361706 0.10441981
0002b0 ee fe 3e 3e c6 4d 41 3b ab c4 d2 3d 8e a2 92 3e
       0.18651935 0.002949582 0.10291418 0.28639644
0002c0 1c e7 c9 3e a4 e6 6c 3d 0f 2b b2 3e e7 ea 7a 3e
       0.39434135 0.057837144 0.34798476 0.2450367
0002d0 15 8b 97 be ff 13 e3 3e 5e a4 d9 3d 65 40 91 3d
       -0.295983 0.44351193 0.10627054 0.070923604
0002e0 8f 6a ce be ba ad 55 be 55 80 f6 3d 29 c6 f0 3e
       -0.40315673 -0.20867053 0.12036196 0.47026184
0002f0 44 54 02 be 7d 64 ac 3d f5 ea ed 3d 4a 32 d8 3c
       -0.12727457 0.08417604 0.1161708 0.026391167
000300 dd 1c 00 3f a2 4b 8c 3e 85 13 d8 3d 22 32 6a bd
       0.5004404 0.27401453 0.10550598 -0.057176717
000310 35 d4 4b 3e f3 e0 d7 bc f9 38 94 bd ec a4 67 3e
       0.1990517 -0.026352381 -0.07237429 0.22621506
000320 f6 c9 48 3e 42 68 53 3e 42 39 b0 3e 7d 03 68 3e
       0.19608292 0.2064524 0.34418684 0.2265758
000330 c7 8c b2 3d 73 f8 a4 3e b0 2b be be f7 78 07 3d
       0.087182574 0.32220802 -0.37142706 0.033074345
000340 13 e6 85 3e 21 ec 9e be 69 8b 64 be cb ef f7 3e
       0.26152095 -0.31039527 -0.22318806 0.48425135
000350 7b 59 62 3e c8 ce 5f 3e db 00 14 be 85 05 52 3e
       0.22104447 0.21856225 -0.14453451 0.20509918
000360 12 1e 57 3d ab 3e 00 bf 63 3e 26 3f d0 31 b4 3e
       0.05251891 -0.50095624 0.64938945 0.35194254
000370 82 60 87 bd de 1e 5b be e5 69 0e be ab 85 ab 3e
       -0.06610204 -0.21398494 -0.13907583 0.33500418
000380 60 6b f7 3d 77 60 e0 3d ee 32 61 3d 93 6a 70 be
       0.12081027 0.10955899 0.05498021 -0.23478155
000390 77 e2 b5 3c 44 0f f1 bd 9f e9 79 3d 10 2e ef 3e
       0.022202713 -0.1177049 0.061013814 0.4671483
0003a0 6e aa b9 3e e3 6c 73 3e 5f 9e 8a 3e f3 2b 07 be
       0.3626284 0.23772006 0.27073953 -0.13200359
0003b0 ed bf 73 3e 01 07 97 be 36 84 6f 3e 69 67 df 3d
       0.23803683 -0.2949753 0.23390278 0.10908396
0003c0 da b1 8a 3e f9 c8 bc 3c 94 5d bd 3e 04 e3 2f 3e
       0.27088815 0.02304505 0.36985457 0.17176443
0003d0 aa 0f 25 3e b6 b6 aa 3d 20 7a ed 3d 6c d3 5f 3e
       0.16119257 0.083356306 0.11595559 0.21857995
0003e0 ee 4c e3 be c2 2d 64 be 8d c1 30 be bc a6 6e bd
       -0.4439463 -0.2228308 -0.17261334 -0.05826448
0003f0 3e 52 81 be 89 f1 ea 3d 80 7e ae 3c 2a c5 6e 3b
       -0.25258058 0.114718504 0.021300554 0.0036433437

fc3.bias f4 [4]
000000 64 b9 98 3e a4 a8 7b 3e b7 e1 3a 3e 61 56 66 3e
       0.29828942 0.2457605 0.18250166 0.22493888
