checkpoint.pth (torch_old, 28463 bytes, 6 tensors)

fc1.weight f4 [64, 37]
00000000: 7b87 6c3d bdde 373d 0152 28be ac7a 32be
00000010: 1014 aabe 018a c3bd 51ed be3c 4b77 923e
00000020: 5269 9fbd 2c68 b0bc 4817 0ebc 78d1 20bd
00000030: d20c 0abe b676 90bd 57ef 1f3e 5f0f 21bd
00000040: 7d19 173e 4ae6 2fbc 4942 bcbd 85f3 70bd
00000050: 8ffd 213e 50ee bd3d 820a 1d3d af7c ffbd
00000060: 7bd3 f43d 3fca c23d c90b 01bd 38db ec3c
00000070: 93cb 3abe 59aa 4cbe 067c 87bd dd91 8a3e
00000080: c752 71be 3bbb bfbd 4613 63be fe31 f7bc
00000090: 93c3 06bd baef 7a3e 9814 093b 17ac 5b3e
000000a0: 7fc1 9d3d 924f 24be cb87 3c3e 1012 edbd
000000b0: 9c79 82bd 4200 1cbe 4af0 47be a93c 153e
000000c0: 74f2 97bc 270e d93d 3662 133e 0288 863d
000000d0: 702f 423e 03e8 b53d 7348 db3d 71f0 5fbd
000000e0: c37a 0dbe af9c 5e3d 5b30 c5bd 31f0 23bd
000000f0: a2c7 233d 2407 373d 2c40 1b3e 0b72 243b
00000100: 0cf9 cd3d 5d7f fd3c 75ad eabd cfc0 4a3e
00000110: db8c 313e 70ec 243d 5b40 be3d ad92 92be
00000120: 275e 0ebd fd88 45bb ddf7 b73d 17f1 fc3d
00000130: 4695 5abd 0497 3cbe f5a7 803e 14b3 d5be
00000140: bb0f f6bc b564 4e3d 47a3 703e 4344 bdbe
00000150: af5e ffbd 28fa febd 17c7 ba3d 413a 23be
00000160: 4813 a5be 85bd 6dbe 5d3c c9bd 1f0b 293e
00000170: 9532 6d3d 51fc 5dbe af75 25be f380 6ebe
00000180: 7bb3 193e 7355 5cbe 0956 d0bd 4ff4 1fbe
00000190: cfcd e4bc f441 633e 09d2 1bbe 497f 81be
000001a0: acc2 d3be 136d 2c3e ac26 27be b8dc 88be
000001b0: 82af fb3d a344 13bd c375 88bd ee2d b53b
000001c0: 668a 5d3d 8059 eb3d 561b 3e3d ee21 9ebd
000001d0: 243a f1bd e08b 9f3d c190 1d3e 33ef 2bbe
000001e0: 1df0 ee3b 1bfa a63e d63a 01bf a60d 96be
000001f0: 6302 c7be d2b2 b5bf 4d7f e9bc 419d 8cbc
00000200: fe31 ffbd 6cdb 1bbe f38b a13c e5f1 1bbe
00000210: 5895 cb3d 2a89 57bb 7d70 243e deff 1d3d
00000220: 2006 72bc 0341 4a3b ffbe f93d 67fb abbc
00000230: a68c 75be 4e63 58bc c5ea 913e d888 823d
00000240: 17b8 fe3d fb44 f139 b4e6 71bc 8397 4b3a
00000250: ab4a 24be c58d 01be f7ff d9bd 99c6 7bbd
00000260: c45c 243e de87 843d ec83 033e 57a9 de3c
00000270: 229e aebc 5d38 57be d271 61bc ccca 37bc
00000280: 9629 103d 8219 0abd 3c58 09be 2946 15be
00000290: 8580 36bd 4953 8abd 5a9b d23c 2a83 4b3e
000002a0: c6d4 c3bd acf2 c13b 6666 c33c 069f 033e
000002b0: 68ab 8f3e 8ac7 c13e c5c7 cbbe e147 09bf
000002c0: 7d5b 03bf 6fc9 f3bf b730 e2bc da6d 733c
000002d0: ab5e 283d 3823 113e fb68 9c3e b4ce 923b
000002e0: 52af e63a 1a74 f33b 800b acbb cda3 963d
000002f0: 2c4a b3bc 8f35 493e 4f37 063e 5879 853e
00000300: 6759 793d 7c9d 48be 38c5 43bf b39c f4bd
00000310: 055b 073c 18fa a8bc 871b b1bc e862 bcbc
00000320: defe 623d e697 053e 06c7 aebd 70dd d2bd
00000330: 4772 e0bd 03eb 013e 600d 3c3d 726a 713d
00000340: af06 043e 72f4 d73d 365d fb3d 87a0 83bd
00000350: d7aa cb3c 5444 bc3c 5286 8a3d 1411 333e
00000360: 385d 5ebd b55c b1bd e5dc bbbd dadd d9be
00000370: 4ca2 813d ed77 373c 6fa6 f23d efe6 1abe
00000380: f277 46bd 3187 1fbe d3f7 0d3e 27f8 08be
00000390: 38b4 3bbe 8721 1ebd d449 0c3c 09c3 a33e
000003a0: 1d8f c6bd f80b 863c 83bb 403d 12af 0d3e
000003b0: 6e02 ec3d 0bec b6bd 1182 c2bd 1620 d1bd
000003c0: 637c 253a 8660 863e 9668 b83d fee7 9fbd
000003d0: 792e 03be 86b5 b1be 170c 87be ce64 f8bc
000003e0: 7c4c 19be be47 95be 26fa cc3d b083 1d3e
000003f0: 34b8 adbd 21f4 31be bc58 113e ab13 eabc
0.05774639 0.044890154 -0.16437532 -0.17429608 -0.3321843 -0.095478065 0.02330652 0.28606638
-0.0778376 -0.021534048 -0.008672543 -0.039262265 -0.13481453 -0.07053892 0.15618645 -0.0393213
0.14755817 -0.010736058 -0.091923304 -0.05882599 0.15819381 0.0927397 0.0383401 -0.124749534
0.11954399 0.09511232 -0.03150538 0.028913125 -0.1824172 -0.19986857 -0.066154525 0.2706441
-0.23566733 -0.09361883 -0.22175321 -0.030175205 -0.032901358 0.24505511 0.0020916816 0.21452366
0.07702922 -0.16045979 0.18411176 -0.11575711 -0.063708514 -0.15234473 -0.19525257 0.14573921
-0.018548228 0.105984025 0.14392933 0.0656891 0.18963408 0.08882143 0.10707178 -0.054672662
-0.13816361 0.054348644 -0.09628364 -0.040023986 0.039985307 0.044684544 0.15161198 0.002509239
0.100572675 0.03094452 -0.114588656 0.19800113 0.17338888 0.040264547 0.092896186 -0.2862753
-0.03475776 -0.0030141466 0.08982823 0.12350672 -0.053365014 -0.18416983 0.2512814 -0.41738188
-0.030036798 0.05038901 0.23499785 -0.36966142 -0.12469231 -0.12450057 0.091200046 -0.15940191
-0.32241273 -0.23216827 -0.098259665 0.16508149 0.057909567 -0.21678282 -0.16158174 -0.23291378
0.15009873 -0.21516971 -0.1017266 -0.1562054 -0.027930168 0.22193128 -0.15216841 -0.25292423
-0.4135946 0.16838484 -0.16323346 -0.26730895 0.12289335 -0.03595413 -0.06663086 0.005529157
0.054087065 0.1149168 0.04641279 -0.07721315 -0.117786676 0.07790351 0.1538725 -0.16790466
0.0072918073 0.3261269 -0.504804 -0.29307288 -0.38869008 -1.4195197 -0.028503085 -0.017164828
-0.12460707 -0.15220422 0.019720053 -0.15228994 0.099405944 -0.0032888153 0.16058536 0.038574092
-0.014771968 0.0030861504 0.12194633 -0.020993901 -0.23979434 -0.01320727 0.28499427 0.06373757
0.12437456 0.00046018497 -0.014764477 0.00077664125 -0.16044109 -0.12651737 -0.106445245 -0.061468694
0.16051012 0.06471227 0.12843293 0.027180357 -0.021315638 -0.21017595 -0.013760047 -0.011217784
0.03519591 -0.033715732 -0.13412565 -0.14577545 -0.04455616 -0.06754167 0.025708843 0.19874254
-0.09562068 0.0059188213 0.023852538 0.12853631 0.2806046 0.3784755 -0.3980085 -0.53625304
-0.51311475 -1.9045848 -0.02761112 0.014857734 0.041105907 0.14173591 0.30548844 0.0044802073
0.0017599857 0.007429612 -0.0052503943 0.07355461 -0.021885954 0.19649337 0.13107036 0.2606914
0.060876276 -0.19591326 -0.76472807 -0.119439505 0.008261447 -0.020627066 -0.021619571 -0.02299638
0.05541884 0.13046226 -0.085340545 -0.10296142 -0.10959297 0.12687306 0.045911193 0.058939405
0.12893175 0.10544671 0.12273638 -0.064271025 0.024861736 0.0229818 0.06763901 0.17486984
-0.05428812 -0.086602606 -0.09172992 -0.42552072 0.06329784 0.011198026 0.11848151 -0.15127157
-0.048454233 -0.15578915 0.13864069 -0.13375913 -0.18330467 -0.038606193 0.008562524 0.31984738
-0.096952654 0.016363129 0.047053825 0.13836315 0.11523901 -0.089317404 -0.094974644 -0.10211198
0.00063127856 0.26245517 0.09004323 -0.07807921 -0.12810697 -0.34708804 -0.2637641 -0.030321505
-0.14970583 -0.29156297 0.100086495 0.15382266 -0.084823996 -0.17378284 0.14194006 -0.028573832

fc1.bias f4 [64]
00000000: d508 eb3d a38c 9c3d df99 66be f1dd 14bc
00000010: 4497 403e 262d 563b 2a7c 35be c346 c33c
00000020: 740c e2bc a69c 69be 1cef 0d3e d403 673e
00000030: 062f 3f3e 0d73 e13d 0f48 69bd f661 aabb
00000040: cda9 e53c 21fe a8bc 413d 0e3b 8728 51be
00000050: 87f6 c0bb 75eb 9b3d 7382 0f3d 5349 c9bd
00000060: b449 05be a8b5 a83d 6099 53bd 4b45 28be
00000070: 0d4b b73d 5528 7f3e 10be 23be b251 75be
00000080: 5303 bf3d f267 623c d56b b0bd c386 da3c
00000090: 35f1 51bd 0050 27bd 9b09 7fbd b552 81bd
000000a0: 5cdc dabd 8267 efbc f059 cdbd 32e4 2c3e
000000b0: 39c6 8f3d aa73 27be a84b 993c 4296 32be
000000c0: af12 2dbe e182 0c3d 7120 07be d082 d03d
000000d0: f1e6 8fbd dd24 a6bd 2e9f 1dbe f307 083d
000000e0: 99ba 1f3d ba1f 243a 1e02 34bd 86fc 91bd
000000f0: 8997 cf3c 882a d23b 71fe 923d 4983 923c
0.11476294 0.07644012 -0.22519635 -0.009086118 0.18807703 0.003268072 -0.17723146 0.023837453
-0.027593829 -0.22813663 0.13860744 0.22560054 0.18670282 0.11008272 -0.056953486 -0.005199666
0.028035069 -0.02062899 0.002170399 -0.20425616 -0.0058887633 0.07613269 0.035036515 -0.098284386
-0.13016397 0.08237773 -0.05165994 -0.16432683 0.08949862 0.24917729 -0.15990472 -0.23956946
0.09326806 0.013818728 -0.08614317 0.026675588 -0.051255424 -0.04084778 -0.06226502 -0.06314603
-0.106865615 -0.029224161 -0.1002692 0.16883925 0.0702023 -0.16352716 0.018712834 -0.17440131
-0.16901658 0.034304503 -0.13195969 0.101812005 -0.070264705 -0.081125 -0.15392753 0.033210706
0.038996313 0.0006260831 -0.04394733 -0.07128243 0.025340812 0.0064137615 0.07177437 0.017884867

fc2.weight f4 [64, 64]
00000000: 0093 25be a81f 773d 87c2 4ebe 8612 b13e
00000010: bb78 1d3c d0b0 1abd 0e4c c3be f95b 3f3d
00000020: 40d3 433e 4a46 ba3e a314 09be bd89 0e3d
00000030: 2770 073d 9324 823d 93a3 9fbe 2145 a6bd
00000040: 7b2d 23bf c061 c8bd f20d c83b 0680 70be
00000050: df07 5bbd 1d15 55be b233 703d 0918 9abc
00000060: db4d 48be 195f da3d a1ff 063e 0242 2b3e
00000070: 30db 1d3d f857 f2bd dc30 9d3e dc0f 9bbd
00000080: 3da1 4d3d ff7d 883d c8e5 ad3d d15f dfbd
00000090: bd41 13be fdb9 583e 5e9e 223e be28 9b3b
000000a0: 45cb 643d 313c 0cbd 0c7a 1d3d 0492 edbd
000000b0: fac1 483e 3fd1 f73b 4956 d8be e743 13be
000000c0: e27e 85be cfb8 86be bf3c b8be 666e 97be
000000d0: df24 f2bd 382e ccbe 75f7 663e a308 63be
000000e0: c576 d7be 8742 5c3e e392 33bd 8450 703e
000000f0: e485 f9bd 4627 f03b b262 6ebe 1a3a 9bbe
00000100: 1bdf ff3d 8413 db3d 7c8d 5cbd 247e 04be
00000110: 016e f23d 731b c03d 18d5 f5bc 434e 713c
00000120: 04f9 72be bbc3 723c dfda f5bc 70b4 b63e
00000130: c576 2ebe 3973 883d d224 2abe 1836 fd3d
00000140: b740 033d 1f01 85bd 75a6 bbbe dc06 1d3c
00000150: 3a74 6a3e da92 e0bd b62d 843e 2184 08bd
00000160: d663 413d 5b42 8e3c d7ea 89bd 9fa8 c2bd
00000170: e438 df3d 20b0 e43d 68ea fbbd 5d27 3d3d
00000180: f1c1 283e 1125 ebbc 5f5a dd3d 837b 22be
00000190: dd23 9e3c a6b5 1b3e 192b 913e 919e 063d
000001a0: 6839 693e f183 b33e 88dd 893e ab31 dabc
000001b0: 0826 59bc 791d 3abd e815 13be d617 e4bc
000001c0: 5c51 88bc 8bd8 8dbd 5819 623e eee5 153e
000001d0: 9116 a1bd 5075 05be b82e 13bf b00a 82ba
000001e0: 10da babd a98b 5d3c cd55 8f3e a988 29be
000001f0: a194 8abd 3522 2a3c 14fb 42bd a8fa ffbd
00000200: 530a 8abd 0c46 57bd 8a2c 883c 9de9 6e3e
00000210: 9cbf dd3d 6966 0bbe d0d9 e2bc fc90 28bd
00000220: 9f40 4a3c 2f73 64bd 574e ee3d 556e ddbd
00000230: d0c7 d83d eadf da3c 0aab 583e 8c39 c1bc
00000240: 2e0d 35be 9bfa c33d b0f1 9c3e fe07 22bd
00000250: 6221 e6be cf2e adbe 2588 3bbe da71 41bb
00000260: fa2b 13bd b13a 20be 489e 3d3c 86a8 cd3d
00000270: b490 ebbd 5044 2cbc dfb3 813d cb43 07bc
00000280: 70d4 84be 5759 d33d e052 4cbd 357e c93d
00000290: 2e18 143e 6a4b 453d 6096 88ba 6353 ca3c
000002a0: 1c66 0f3f 3d8b 95be 21f3 6abe a9c9 053d
000002b0: d2ed 533d e3a3 753d 2ddc b73b 60ca 87bc
000002c0: da11 b9bd 4abd 46be 4edc 1ebf cc30 fb3c
000002d0: 9b08 f8bd c99a 51be aab1 b6b8 4d02 1cbe
000002e0: ec02 dc3d 01a4 10be 137a 263e 6736 4dbd
000002f0: 200f cebd 3bac ddbb 226e 223e 6d52 ce3d
00000300: 94e6 523d f4d2 903b a246 403e b840 88bd
00000310: 015a 9e3d a747 8f3b 89eb 393b e99d 19bd
00000320: 31a8 27ba ae45 3e3d a0ef 5bbe afa8 afbe
00000330: b06b 84be 05ef 653e 615c 59bd be57 0cbc
00000340: 188a fbbd 7448 02be 8f21 833d d0ce d6bd
00000350: abb1 a23c 3dad 85be f5fb 69bc 1831 e73d
00000360: 3096 2f3e e8ab 043e dc34 453d 627e a63d
00000370: 87a8 ad3d 576a abbe 07b3 0abd edf8 943c
00000380: 6933 f2bd e6fd 893e 023b c63e 22b4 8f3d
00000390: fede bfbe f1b7 363d f5a9 34bc 3be0 473d
000003a0: 6ab6 11bf a55e 4b3d 7585 71bd 67d5 27bb
000003b0: 1ac1 9f3e be53 723d be2e 06be 681c 5cbd
000003c0: 5417 3cbd 3abb 2b3e 7883 4bbe cd6f 44be
000003d0: dfce 143e 3350 d1bd 3c5a 063e 0213 783d
000003e0: c8cd 0b3c 586c 373c 27f6 9fbe c502 4c3e
000003f0: 9c6b d3bd dca5 033e 1aa0 0abe 989a 02be
-0.16169357 0.060332924 -0.20191394 0.34584445 0.009611304 -0.037766278 -0.38143963 0.04671857
0.19123554 0.3638175 -0.13386779 0.034799326 0.03306594 0.06354632 -0.31179485 -0.08118654
-0.6374127 -0.09784269 0.006105178 -0.23486337 -0.053474303 -0.20808835 0.05864305 -0.018810289
-0.1956095 0.1066267 0.13183452 0.16724399 0.03853911 -0.11833185 0.3070134 -0.07571384
0.050202597 0.06664657 0.08491093 -0.109069474 -0.14380546 0.21164699 0.15880725 0.0047350815
0.055857915 -0.03423709 0.03844647 -0.11600116 0.19605246 0.007562786 -0.4225333 -0.14381371
-0.26073366 -0.26312873 -0.35983846 -0.29576415 -0.11823439 -0.39879012 0.22555335 -0.22171263
-0.420828 0.21509753 -0.043841254 0.23468214 -0.12183741 0.0073289005 -0.23279837 -0.30317765
0.12493726 0.10697082 -0.053845868 -0.12938744 0.11837388 0.093802355 -0.030008838 0.014728132
-0.23727804 0.014817174 -0.030011592 0.35684538 -0.17037494 0.06662602 -0.16615608 0.12363833
0.03204414 -0.064943545 -0.36650434 0.009584155 0.228959 -0.1096551 0.25816125 -0.033329133
0.04721435 0.017365625 -0.06734245 -0.09504818 0.10899523 0.11166406 -0.12300569 0.046180118
0.16480233 -0.028704198 0.108082525 -0.15867428 0.01930421 0.15206012 0.28353193 0.032866064
0.22775805 0.350616 0.26926827 -0.026635012 -0.013253696 -0.045438264 -0.14363825 -0.027843397
-0.016640358 -0.06926068 0.2207998 0.14638492 -0.07865632 -0.13033032 -0.5749316 -0.0009921398
-0.09123623 0.013522067 0.27995148 -0.16556038 -0.0676663 0.010384132 -0.047602728 -0.12498981
-0.067402504 -0.052557036 0.0166228 0.23331304 0.10827562 -0.13613285 -0.027691752 -0.041153893
0.012344508 -0.05577391 0.11636036 -0.1081206 0.10584986 0.026718099 0.21158996 -0.02358701
-0.17680809 0.095692836 0.30653143 -0.039558403 -0.44947344 -0.33824775 -0.18313654 -0.0029517324
-0.03593061 -0.15647389 0.011573382 0.10041909 -0.11502209 -0.010514334 0.06333136 -0.008255909
-0.25943327 0.103197746 -0.049883723 0.09838525 0.14462349 0.048167624 -0.0010420792 0.024697965
0.5601518 -0.29207793 -0.22944309 0.03266302 0.051740475 0.059970748 0.005610964 -0.016575992
-0.09036608 -0.19408146 -0.6205491 0.030662917 -0.12111016 -0.20469202 -8.711529e-05 -0.15235253
0.10742745 -0.14125063 0.16257505 -0.05010071 -0.100614786 -0.0067649162 0.15862325 0.10074315
0.051489428 0.004419679 0.18776944 -0.06652969 0.07732011 0.0043725553 0.002836915 -0.03750411
-0.0006395607 0.04645317 -0.21478128 -0.34308383 -0.2586341 0.2245446 -0.053066615 -0.008565841
-0.12282199 -0.12722951 0.06402885 -0.10488665 0.01986011 -0.26108733 -0.014281263 0.11288661
0.17147136 0.12956202 0.048146114 0.08129574 0.0847941 -0.33479568 -0.03386214 0.018185103
-0.11826212 0.26951522 0.38716894 0.070167795 -0.37474817 0.044609014 -0.011026849 0.048797827
-0.56918967 0.049650807 -0.058965165 -0.0025609375 0.31202012 0.059161894 -0.13103768 -0.053738028
-0.045920685 0.1677064 -0.1987437 -0.19183274 0.1453204 -0.10220375 0.13120359 0.060565002
0.008532949 0.011195265 -0.31242487 0.19922931 -0.10323259 0.12856239 -0.13537636 -0.12754285

fc2.bias f4 [64]
00000000: de33 82bd 6766 5f3d 7f59 7b3e ba47 c83d
00000010: 522d 1c3e 41dd 12be 845d e0bd 0e8a cdbc
00000020: acaf e03d 9ba0 e53e 035c d8bd f5f0 233e
00000030: 5d2a 493d 88ce f4bb 6095 c4bd 91eb 90bd
00000040: 1602 833d 4c70 8ebc d3f5 dbbd 1cf8 133e
00000050: 393b 9ebc b65b 003f e2c7 78be 3873 06be
00000060: 8fb6 54bc c654 21be 366d 45bc b8af 1bbe
00000070: eea2 32bc a15b 8c3e 915f 653b 818e 9ebd
00000080: 4894 6fbd 59a8 753d 06b4 073e c412 a7bd
00000090: 7f08 c2bd ad56 f7bd 771c 2e3d a36b 75bd
000000a0: aadf 163e 64a3 f13e 31a5 8f3e 2702 21bd
000000b0: 14ae 823c 86ab 1cbd d7d4 153d f2e5 01be
000000c0: f134 833d 05d1 d9bd 4d33 4bbd 3304 e53e
000000d0: 3316 c5bc b824 e8bd e5f1 a83e 18f8 18be
000000e0: d5de 83be 7b6b 31be b848 8ebd d86c a7bd
000000f0: d628 00bd 7d58 443e 0fb2 11bd f70b 10be
-0.06357549 0.054541018 0.24545859 0.09779306 0.15251663 -0.14342214 -0.10955337 -0.025090244
0.10971007 0.44849095 -0.10564425 0.16009887 0.049112666 -0.0074709095 -0.095988035 -0.07076181
0.06396882 -0.017387532 -0.107402466 0.14450115 -0.019315349 0.5013994 -0.24294999 -0.1312989
-0.0129829785 -0.15754995 -0.012049964 -0.1520375 -0.010903103 0.27413657 0.003499959 -0.07742024
-0.05849102 0.059975002 0.13252267 -0.08157876 -0.09474277 -0.12077079 0.042507615 -0.059917103
0.14733759 0.4719497 0.2805572 -0.039308693 0.015952148 -0.038249515 0.036579933 -0.12685373
0.06406582 -0.106355704 -0.04960947 0.44729766 -0.024058437 -0.113351285 0.3299705 -0.1493839
-0.25755945 -0.17326157 -0.06947464 -0.08175057 -0.031288944 0.1917438 -0.0355702 -0.14067064

fc3.weight f4 [4, 64]
00000000: 6623 92be 68fa a93e 0695 773e 913d 573e
00000010: 6cb1 643e b337 93be d8d3 d23d c114 6abe
00000020: 60bc 5c3e da75 1b3e 90e2 a63e 1ab3 6fbe
00000030: b47a 2fbc 37e9 5bbd add0 80bc dd96 4bbe
00000040: e824 493e 33f4 a53e 73ce 34bd 6590 553e
00000050: 0717 95bd 010f 0f3e 6fd7 c1b9 5cc3 57be
00000060: 722a 233e 8cdb 93bd a711 d8bd c0d2 cabd
00000070: 8756 1a3c d3b1 b73d 2e47 c5be b5a4 6d3d
00000080: 7e53 293e 5807 063e cdea f53d f86e b83d
00000090: 0281 333c 7ad6 86be d929 183e e490 793e
000000a0: 792a f93d 5218 263e 2b1d 573e ad62 9d3e
000000b0: 93de 533d 99ec 0e3a 2743 143e f6c2 22bd
000000c0: 4fc0 853e 0a9f 6b3e b891 343e 1099 403e
000000d0: d82c 40bd b2c5 86bd 9332 113e 6f4e cdbd
000000e0: 3670 17be d600 2f3e 4ea2 d73d e62c e1bc
000000f0: 976a a1be 1110 b43e d4ff a6bd 6ee0 d83d
00000100: 85fe 993e 17b2 4c3e c709 723e f1e6 cb3e
00000110: 5097 873e 4fe4 d2bc 5382 4f3c 9283 33be
00000120: adef dd3d 0538 303e 7afd 073f 14e8 6f3d
00000130: 82f4 5c3d 5f0c 833e 3cfa 16bc 7856 1ebe
00000140: f827 c2be bfc1 6b3e 17ba d3bd 684f 1e3e
00000150: 0ff5 543e 4c4a 453e aa8a 1abd e16d b7bd
00000160: eb7c 783e 536a 16be cf40 ffbc ba11 15be
00000170: 367a 29bd 0be4 e53d 2cfc 2a3e 1777 063e
00000180: 5916 de3e 887d ec3d c236 113e 01a0 5cbe
00000190: 0fc9 943e e758 77be 8547 173e 1de7 873e
000001a0: 98e3 5c3e 68c6 353e f244 3e3e 5b5d 8f3e
000001b0: 056f 0c3d 2769 6ebd b30c 273e e926 153e
000001c0: 2eba dc3e 11a4 5b3e 7780 413e baec 833d
000001d0: 1405 c6bc 86a4 2e3d 8531 1e3e 4065 383d
000001e0: 6f2f 36be f09e 36be 4a3b 3f3e 4f87 513c
000001f0: ba59 29be 824f 6b3e d3b3 efbd 1429 963d
00000200: 1094 473e 1329 3f3e 6ac1 a53e f9ec 193f
00000210: e567 cf3e 1c90 0cbe 7d7e f93d 2a15 513c
00000220: 90b8 463e e839 e53d d40b 67bc 770c 8e3e
00000230: 8de1 943e 6e92 7bbe ac76 02be c7d4 90bc
00000240: d7e8 ba3e d303 953c d1c8 9abd 2cea d13d
00000250: 14b6 4dbe cd1d 543e 020f 42be e7c2 c33d
00000260: 21e2 bc3e 02c7 16be 585e bfbe e569 8ebe
00000270: 973d fe3e f939 1b3e 0568 5a3d 7ad1 16bd
00000280: af2a ec3e 3507 48be 8d0c e93d 585d 083e
00000290: bfac 7d3d 6e7e dfbb b64f 133e 43e7 f03d
000002a0: 5ef6 8c3e 37e6 203e 4db4 8a3e 7e68 f03e
000002b0: f86e d93d 9f64 663e 6ba4 e23d 1478 4abe
000002c0: 2a3d a23e 9d72 04bd ac3f 173e 021c 793e
000002d0: 6552 88be 874f a23c bde3 c93d 92b6 4f3e
000002e0: a6a0 5bbd 4575 ffbd fe4b c83d 18d0 b83e
000002f0: cf50 04bd 2389 943e f4c1 45be de90 80be
00000300: a916 713e 334b 8f3d 0759 473e bf87 2e3e
00000310: 2bae c03d 2a0d 60be 2160 42bd 5c55 c43d
00000320: b0ed 6f3e f0fd 383e 9c0f ae3e f114 c0be
00000330: 55bd ca3d d54d a23e 4f7c de3c a5ca b8be
00000340: cd35 1f3e 9f87 883e 4773 983c 0fb2 173e
00000350: 313b 0a3e 7cd1 863e 5a17 11be 8a5d e5bc
00000360: 5482 393e d394 92be 8af5 a3bd e5c8 503e
00000370: dc47 cc3d a130 db3c fdc0 363d e938 523e
00000380: 2c9d 68be a412 cb3e c3cc f93c 402e 973e
00000390: 87e6 90be 650e 9dbe 90a7 0b3f 375d d33d
000003a0: 0712 233e 5554 553e a09e 7a3e bfbd cd3d
000003b0: 590a 8d3e 9a6b 3cbe cc32 783e 9464 dbbe
000003c0: c842 023b cd70 e3bd 4b21 903e d459 063e
000003d0: c91c 06be 1007 7bbe 1052 f73d 9f57 e03d
000003e0: 07b2 6ebd 76e2 8ebe 19b6 6b3d f5ac 2cbe
000003f0: a1a1 a0be 7027 6c3e d1ef e6bd bd2b 7c3e
-0.28542632 0.33198857 0.24177942 0.2101958 0.22333306 -0.28753433 0.10294312 -0.2285948
0.21556234 0.15181676 0.32594728 -0.23408166 -0.010710407 -0.053689208 -0.015724504 -0.19881769
0.19642985 0.32412872 -0.044142198 0.20855863 -0.07279783 0.13970567 -0.0003697234 -0.21070617
0.1593416 -0.072196096 -0.10550242 -0.099034786 0.009420044 0.08969464 -0.38530868 0.058018405
0.16535756 0.13088739 0.12007675 0.090055406 0.010956051 -0.26335508 0.14859714 0.24371678
0.12166304 0.16220215 0.2100722 0.30739346 0.051725935 0.0005452126 0.14478742 -0.03973671
0.26123282 0.23009887 0.17633712 0.18808389 -0.046917766 -0.06580676 0.14179449 -0.10024726
-0.14788899 0.17090163 0.10529004 -0.02748723 -0.31526634 0.35168508 -0.08154264 0.105896816
0.30076995 0.19989811 0.23636542 0.39824632 0.2648263 -0.025743632 0.012665349 -0.17530659
0.1083673 0.1720887 0.5312115 0.058570936 0.05394412 0.25595376 -0.009214934 -0.15462673
-0.3792112 0.23023127 -0.10338228 0.15459979 0.20796607 0.19266623 -0.037729897 -0.089565046
0.24266402 -0.14688997 -0.031158833 -0.14557543 -0.041376315 0.11225136 0.16697758 0.13131367
0.43376425 0.11547381 0.14181045 -0.21545412 0.29059646 -0.24155007 0.14773376 0.26543513
0.21571195 0.17751467 0.18580988 0.28000912 0.034285564 -0.05820575 0.16313438 0.14565624
0.43110794 0.21449305 0.18896662 0.064416364 -0.024172343 0.04263737 0.15448578 0.045018435
-0.17791532 -0.17834067 0.1867496 0.012788608 -0.16538134 0.22979549 -0.117042206 0.07332054
0.19490075 0.18668012 0.32374126 0.60127217 0.40508953 -0.13726848 0.12182329 0.012761394
0.19406343 0.11192685 -0.014101941 0.27743885 0.29078332 -0.24567577 -0.12740582 -0.017679585
0.36505768 0.0181903 -0.07557834 0.10249743 -0.20088989 0.20714493 -0.18951038 0.09558659
0.36891273 -0.14724353 -0.37376666 -0.27815166 0.49656364 0.15158834 0.053321857 -0.036820866
0.46126315 -0.19534 0.11379347 0.13316858 0.06193232 -0.0068204915 0.14385876 0.1176286
0.27531713 0.1571282 0.27090684 0.4695472 0.10616869 0.22499321 0.110665165 -0.19772369
0.3168729 -0.032335866 0.14770383 0.2432709 -0.26625362 0.019813312 0.09857891 0.20284489
-0.053620003 -0.12473539 0.09780119 0.36096263 -0.032303628 0.29010877 -0.19312268 -0.25110525
0.235438 0.06996765 0.19467555 0.1704397 0.0940822 -0.21880022 -0.047454957 0.095865935
0.23430514 0.1806562 0.33996284 -0.37515977 0.098993935 0.31700006 0.027158884 -0.36092106
0.15547867 0.2666597 0.018609656 0.14814018 0.13499142 0.263317 -0.14169064 -0.027998704
0.18116122 -0.2862917 -0.08005817 0.20389135 0.099746436 0.026756587 0.04461764 0.20529522
-0.22716206 0.3966266 0.030493146 0.29527473 -0.28300878 -0.30675045 0.54552555 0.10320514
0.15924846 0.20832951 0.24474573 0.10045957 0.27546957 -0.18400422 0.24238127 -0.42850173
0.001987623 -0.111054994 0.281504 0.13120204 -0.13096918 -0.24514413 0.12076199 0.109542124
-0.05827525 -0.2790715 0.05754671 -0.16862853 -0.31373313 0.23061919 -0.1127621 0.2462606

fc3.bias f4 [4]
00000000: 0749 a83e 37c0 853e 2979 243e b5b4 333e
0.32868215 0.2612321 0.16061844 0.17549403
