checkpoint_dqnprio.pth (torch_old, 28405 bytes, 6 tensors)

fc1.weight f4 [64, 37]
000000 69 65 c5 bb 7b 2a a4 3b 23 25 b2 bc 05 c9 05 bd
       -0.006024052 0.005009947 -0.021746224 -0.03266241
000010 8c b1 8f bd 4a 16 c8 3d 96 8d 38 3d 08 11 da 3c
       -0.07016286 0.09769876 0.045056902 0.02661945
000020 0d 17 ab 3c 06 4f 61 bc 94 a6 a6 3e fd 5f 20 bf
       0.020885015 -0.013751751 0.32548964 -0.62646466
000030 a7 8b 0d bf f0 65 a3 be 63 76 fd bf e7 fa 22 3d
       -0.5529122 -0.3191371 -1.9801754 0.03979006
000040 35 9d 41 3d da 23 1d 3d 57 8b 12 bd be ff df bc
       0.047269065 0.03836427 -0.035777416 -0.027343627
000050 22 57 93 3d 2f 88 68 3e e5 9a d2 3d fe 16 8e 3c
       0.07194354 0.227082 0.1028345 0.017344948
000060 29 d8 24 3d 63 78 d1 3c 2d 5f 08 bd cc e7 d6 3c
       0.04024521 0.0255701 -0.03329389 0.026233576
000070 db 88 68 3c 7b 99 9c 3d f3 b9 99 bd 77 9c f2 3a
       0.014192785 0.076464616 -0.0750617 0.0018509765
000080 2a e4 e7 3c 94 d3 7b 3d 7e 42 bd 3d ba 05 f7 bc
       0.02830704 0.061481073 0.09241198 -0.030154098
000090 a4 73 9e 3a 84 ed d4 3e cd e2 8a be ca 56 12 be
       0.0012088907 0.4158746 -0.2712616 -0.1429092
0000a0 6e cb 1e be 15 ce bc bf ea 4a 8b 3c ac 4f e9 bd
       -0.1550729 -1.4750391 0.017003495 -0.11392149
0000b0 a0 96 cc bd bb 88 60 bc ac 8b c2 3d d1 e0 76 3d
       -0.09989667 -0.013704474 0.094992965 0.060272995
0000c0 bf 09 dd bc 86 6c 6e 3d 4e 4d a2 3d 49 a3 70 3d
       -0.026982186 0.058208965 0.07924901 0.05874947
0000d0 86 7d 68 3d e7 ed ed 3c 6c d1 f5 3d b9 09 94 3d
       0.056760333 0.029044105 0.12002835 0.07228417
0000e0 2d 19 d6 3d 8a 64 87 bd 38 8e 95 bd 74 41 c4 bd
       0.10454021 -0.06610973 -0.07302517 -0.09582797
0000f0 d6 ff b6 3b 84 cb 5d 3d 66 e1 70 3d 8f d9 e1 3d
       0.0055846972 0.054149166 0.058808707 0.11027824
000100 af 32 97 bd 23 15 20 bd ff 7f 2b bd 22 b8 0d 3e
       -0.07382714 -0.039082658 -0.041870113 0.13839772
000110 31 c5 fd 3d 64 11 27 3d 4a 63 1a 3d c5 ab 20 bd
       0.12391127 0.04078807 0.037692346 -0.039226312
000120 ca 5e fd bb 65 30 87 3b 40 c5 b2 3d d2 63 31 3e
       -0.007732247 0.004125642 0.08729029 0.17323235
000130 8b 72 03 3e 98 31 ef bd dd 39 cb bd 94 14 50 3d
       0.12836663 -0.11679381 -0.09923146 0.050800875
000140 9a 33 87 3c 26 2a 0d 3d 14 4e a1 bd d6 93 2b be
       0.016504098 0.034464024 -0.0787622 -0.16755614
000150 15 77 71 3d d9 de ff bd 53 c9 54 bd e2 b0 8c 3c
       0.058951456 -0.12493677 -0.05194981 0.017174188
000160 25 23 8a 3e 11 f6 8b be 19 d8 5a 3e 21 38 f4 3d
       0.26979938 -0.2733617 0.21371497 0.11924768
000170 d5 2a d2 3d ef 1e f2 be 28 5e 8d be 7f 84 d2 bc
       0.10262076 -0.47289225 -0.27610898 -0.025697945
000180 a9 af 00 3e 85 7f bf 3d 22 c9 39 bd 51 37 bc be
       0.12567009 0.09350494 -0.04535783 -0.36760953
000190 aa ba 3f 3e 5c 68 1a 3e 6d 33 b6 3d 33 75 06 bf
       0.1872355 0.15078872 0.088965274 -0.5252258
0001a0 97 18 64 be fa 6b 3e bd b3 4c 59 3b 82 8d da bd
       -0.22275005 -0.046489693 0.0033157289 -0.10671522
0001b0 78 d0 fa 3a 32 95 23 bc 8e f1 3e bb 07 89 d9 3d
       0.0019135615 -0.009984301 -0.0029135677 0.10621839
0001c0 5c e5 ae 3d 93 e9 03 3e 92 1e 1b 3e 3b 53 b5 3d
       0.085398406 0.1288207 0.1514838 0.088537656
0001d0 62 e3 c3 3c c8 50 e4 bc e0 55 99 3d 12 02 e0 3d
       0.023912136 -0.02787055 0.074870825 0.10937895
0001e0 11 6f a1 3d af 8f 89 bb 75 23 23 bd ec 04 c9 bc
       0.07882512 -0.0041980366 -0.039828736 -0.02453848
0001f0 50 70 37 bd d9 c0 75 bd 7c af 68 3e 4c 96 19 bf
       -0.044784844 -0.059998367 0.22723192 -0.5999496
000200 bc 2c d6 be c1 41 19 bf 3d 5f ec bf c2 08 61 3c
       -0.41831005 -0.5986596 -1.8466564 0.013734998
000210 a3 ea 00 3d 1a 2f c8 3c 4b 86 3b 3d 8d 16 8f bb
       0.031473767 0.024436522 0.04578237 -0.004366702
000220 cd e5 4c 3c 39 65 e9 3d 2a 76 2b 3d 14 5f 0d 3e
       0.012505961 0.1139626 0.041860737 0.138058
000230 a0 1f 86 3d a2 68 b9 3d 5b d4 18 3e 23 2f b4 3d
       0.06549001 0.0905316 0.14924757 0.08798053
000240 96 a5 5b b9 1e 1c 21 be 29 a2 0c 3c 25 3c ac ba
       -0.00020947153 -0.15733382 0.008583584 -0.0013140483
000250 ad 7d df be 57 7d 94 be 5e 25 86 3d f2 a9 b3 be
       -0.4365057 -0.29001877 0.06550096 -0.35090595
000260 bb 2e 90 be ee 70 b5 be 41 98 1d 3d 72 35 d7 3d
       -0.28160653 -0.3543772 0.03847528 0.10508241
000270 50 3f 25 bf 33 93 aa bf 88 69 84 bd 4a 8c 05 be
       -0.6454973 -1.3326172 -0.06465441 -0.13041797
000280 de 57 d8 bd 24 12 52 be a9 d4 82 be 51 ea aa be
       -0.10563634 -0.20514733 -0.25552872 -0.33381894
000290 de c1 aa be ba ea c6 3d e1 0c c7 be 69 8a 4d bf
       -0.33351034 0.09712739 -0.38877013 -0.8028932
0002a0 d0 50 96 bd 98 03 21 be df 87 3d 3b 06 68 3c 3c
       -0.073396325 -0.15724027 0.0028920097 0.0114994105
0002b0 fd 48 d1 3c a6 4b c5 be 73 1c 8a be 33 d1 76 3e
       0.025547499 -0.38534278 -0.2697483 0.2410324
0002c0 79 e5 8c be 89 01 d3 bf cd 71 0d be 16 45 0b 3d
       -0.27518824 -1.6484843 -0.13812943 0.034001432
0002d0 a7 99 9b bd 54 d7 b9 bd 1a 80 5e be ad 93 e8 3d
       -0.07597666 -0.09074274 -0.21728554 0.11356292
0002e0 b5 5e a2 3d 7c 08 3c bc 45 57 8a bc e8 91 87 3d
       0.0792822 -0.011476632 -0.016887316 0.06619626
0002f0 35 d3 2e be 63 ad f6 3c 46 02 27 3e 67 3f 30 3e
       -0.17072757 0.030111974 0.16309461 0.17211686
000300 31 34 a9 bd e6 87 cd be 21 95 9d bf af f4 53 bd
       -0.08261908 -0.40142745 -1.2311136 -0.05174702
000310 d3 69 9b bd 6d 15 79 bc 9c ed e2 bd db 34 c5 bd
       -0.07588544 -0.015202862 -0.11080477 -0.09629222
000320 1d 15 81 bc 37 65 08 3e 6b 6b ff bd bf 35 92 3b
       -0.015757138 0.1331986 -0.1247166 0.0044619734
000330 48 c8 ce bd 65 7c 06 3e f9 1a 9a 3d a7 77 2f 3d
       -0.10096794 0.1313339 0.07524676 0.04283872
000340 67 04 c7 bc 2d 57 88 bc 7c a7 f1 bd 0e f0 f4 3d
       -0.024294091 -0.016643131 -0.11799523 0.11959849
000350 30 1f 16 3e 2d 2e 12 bc 61 c3 29 3d bd f2 85 bd
       0.14660335 -0.008922142 0.041446093 -0.06540439
000360 f9 b2 3a bd dd 01 d7 3d a8 b7 ce 3d a7 31 87 be
       -0.045580838 0.10498402 0.100936234 -0.2640507
000370 21 21 37 3c 43 9f e3 3c 0d 9c 2d 3e 46 0e 68 bd
       0.011177332 0.027785903 0.1695406 -0.056654237
000380 9b 88 82 bd 1c fe a1 bd 56 87 72 be 67 bc 07 bc
       -0.06373712 -0.07909796 -0.23684439 -0.008284665
000390 fb cf 53 bd 9e fc 0f 3d f9 9b ff bc 84 bc 62 3e
       -0.051712018 0.035153024 -0.031202303 0.22142226
0003a0 41 38 ef 3d 38 24 f9 3d d3 64 34 39 af c7 66 3c
       0.116806515 0.12165111 0.00017203698 0.014085694
0003b0 17 7c 03 be 9f 0a 6c bd 46 b4 1b 3c 66 17 e1 bc
       -0.12840305 -0.057627317 0.00950343 -0.027476978
0003c0 a7 b6 cd bc cd 24 27 3d f0 8b 35 be 1b 00 25 3d
       -0.02511151 0.04080658 -0.17729163 0.040283304
0003d0 e1 c7 09 3e 75 32 d2 3d 51 fa 8d 3e 72 27 90 bd
       0.13455154 0.1026353 0.2773004 -0.070387736
0003e0 26 28 b8 bc 0c bb ba bc 8a 9b 89 bd c6 c7 af 3a
       -0.022480082 -0.022794269 -0.0671912 0.0013410978
0003f0 87 47 86 3e 23 21 c5 bc 9f 2f 40 be 39 f6 c8 be
       0.26226446 -0.024063652 -0.18768166 -0.39250353

fc1.bias f4 [64]
000000 f0 de 04 3e 9d fb c0 bb 31 cd fe bd 6d 95 ab bc
       0.12975669 -0.0058893696 -0.12441481 -0.020945275
000010 a6 fb 19 3e 14 01 e1 bc 6e a6 54 bd 05 94 23 3d
       0.15037403 -0.027466334 -0.051916532 0.039936084
000020 cb fc c8 bc 65 e4 41 be be eb fc 3d 39 7a 48 3e
       -0.024534604 -0.18934782 0.12349652 0.19577874
000030 92 1e 8e 3d 52 db fe 3d 97 e8 a6 bd 43 fc 1d bd
       0.069394246 0.12444176 -0.08149832 -0.038570654
000040 72 60 79 3b f1 68 ed bd a8 fc 83 bc 86 8a 53 be
       0.003805187 -0.115922816 -0.016111687 -0.20658311
000050 2c 71 03 be 55 f6 30 bc c6 44 35 3c a4 3c 8e be
       -0.1283614 -0.010800918 0.01106376 -0.2778064
000060 14 f7 d7 bd 85 c8 12 3e 8b 0b 78 bc 4a c1 c0 bd
       -0.10545173 0.14334305 -0.015139471 -0.09411867
000070 f1 0e a0 3d 27 b5 ea 3d d2 8e c8 bc e1 aa e2 bd
       0.0781535 0.11460333 -0.024482165 -0.11067749
000080 59 6e f7 3d b5 07 2e 3d f9 1e e3 bd 49 ac 9e 3c
       0.12081594 0.04248782 -0.11089892 0.019369261
000090 ca 7d 92 bd 5b d1 1d bc b7 6a 8e 3c 62 28 1d be
       -0.071528986 -0.009632434 0.01738487 -0.15347436
0000a0 57 8c 9e bd 3a 13 d2 bd 60 fe bd bd 63 b8 5c 3e
       -0.077416115 -0.102575734 -0.09277034 0.21554713
0000b0 f1 f8 23 bd fe c5 a5 bd ee 03 27 3b 68 13 1b be
       -0.04003233 -0.08094405 0.002548452 -0.15144122
0000c0 9a b7 e4 bd 83 a6 c4 bc 06 21 ca bd 49 46 01 3e
       -0.11167832 -0.02400518 -0.0986958 0.12624468
0000d0 f9 34 8e bd b9 5b 61 bd 27 0f 3f be 43 5e 96 bb
       -0.069436975 -0.055019114 -0.18658124 -0.0045888736
0000e0 bd 54 78 3d 3f 74 33 bd be 23 13 be 86 fb 31 be
       0.060627688 -0.043812033 -0.14369103 -0.17381105
0000f0 34 54 ec 3b f5 c4 00 3d a7 d7 9b bc 72 ec d7 3c
       0.007212186 0.031437833 -0.01902373 0.026357863

fc2.weight f4 [64, 64]
000000 e4 e8 01 3e f2 e6 ef 3d 42 12 ed bc 26 94 3e 3e
       0.12686497 0.11713971 -0.02893937 0.18611202
000010 ec 21 2b 3e ba e8 be 3d bd 32 75 bd bb d4 ef 3d
       0.16712159 0.09321733 -0.05986284 0.11710497
000020 42 24 5c 3e 68 c3 10 3e 26 84 a1 3d a4 ae 93 3b
       0.21498206 0.14137042 0.078865334 0.004506903
000030 e9 2d c5 be 92 4a 33 3e b7 ea 9d 3d 89 38 06 3e
       -0.3851159 0.17508915 0.07710784 0.13107504
000040 67 69 ef bd e2 48 8b 3d 53 17 c0 3d 2c 7e 64 be
       -0.11690026 0.06801011 0.09379449 -0.22313756
000050 0b 0b 7e 3c 37 dd 33 be 6c ef 4b 3d 2c 02 c4 be
       0.015505563 -0.17564856 0.049788877 -0.38282907
000060 81 37 ed 3d 20 9e 24 3e 2a 2e 85 3e ae 7a 5f 3d
       0.11582852 0.16075945 0.26011783 0.054560356
000070 c0 e1 76 3e 24 28 44 be 10 e3 d9 bc c7 a1 ff bd
       0.24109554 -0.19155937 -0.02659753 -0.124820285
000080 af a4 d8 3d ef d8 53 3e 83 3b a8 3c 7a e3 ad bd
       0.10578286 0.20688222 0.02053619 -0.08490653
000090 d7 60 ca bd 1d ab 81 3d 37 e4 eb 3e 51 38 42 be
       -0.09881752 0.063314654 0.46072552 -0.18966796
0000a0 d2 4c fc 3d 5c b9 aa 3e b0 af 93 3e 8c 62 89 bd
       0.1231934 0.33344543 0.28844976 -0.067082494
0000b0 38 39 73 3e 7a aa 03 be 87 17 8e 3d 49 d3 23 3d
       0.23752296 -0.12858 0.06938081 0.03999642
0000c0 bb 30 8c be 5b 97 b9 be 87 fb 13 be 51 46 83 3d
       -0.27380928 -0.36248288 -0.14451419 0.06409896
0000d0 22 65 81 bd 22 08 3a bd 0a 05 54 3e f4 c1 fb bc
       -0.06318118 -0.045417912 0.20705047 -0.030732132
0000e0 24 72 8e 3b 85 d5 13 3e b4 92 3b bd 3e 70 37 3e
       0.0043471027 0.1443692 -0.045794204 0.17913911
0000f0 53 93 47 3d 63 69 81 3e 6b 5b d9 3d 6a df 8a bd
       0.048724484 0.25275716 0.1061314 -0.06780894
000100 16 9c 08 3d 7f ec 1a 3e 30 d1 38 be a4 08 e8 bd
       0.03335198 0.15129279 -0.18048549 -0.11329773
000110 89 45 ce bd d8 e8 31 3d 08 9a 85 be b5 b8 62 3e
       -0.100718565 0.043434948 -0.2609408 0.22140773
000120 d5 27 f1 bc 22 c1 75 bd 41 10 08 3e 53 47 5d 3e
       -0.029437939 -0.05999864 0.1328745 0.2160924
000130 1a 7b 32 be b1 1f 42 3e af 5e ff bd ac 3a c4 3d
       -0.17429772 0.18957402 -0.12469231 0.09581503
000140 36 27 69 bd e5 9c 6d bd 6e e5 e3 bd 67 ab b8 3b
       -0.05692216 -0.058010954 -0.111277446 0.005635667
000150 0b db 66 bb a0 aa 3e be ac f0 8c 3c 57 5c 19 3e
       -0.0035225775 -0.18619776 0.017204605 0.14976631
000160 05 f4 46 3e 4f 7f 0d 3d 77 45 2b bd 42 43 77 3e
       0.19429024 0.03454524 -0.041814294 0.2414675
000170 c0 d1 da 3d d6 4d 2b bd 44 9d b1 3d 3c 0e 92 bd
       0.10684538 -0.041822277 0.08672574 -0.07131621
000180 e2 13 39 3d c0 0e 8d 3e 45 6b 01 be 84 1e 25 be
       0.045184977 0.27550316 -0.12638576 -0.16124922
000190 85 00 ab 3d 1a b6 1d 3e 74 3e ce 3d f1 74 00 be
       0.083497085 0.15401497 0.10070506 -0.1254461
0001a0 0c e5 d2 bd 19 12 8d 3d a4 19 57 bd 06 fe 35 bd
       -0.102975935 0.068882175 -0.052514687 -0.04443171
0001b0 72 b6 39 bd de 4b 16 be ce b3 b1 bd 64 b7 8a bc
       -0.04534001 -0.14677379 -0.08676873 -0.01693315
0001c0 5e 7f d5 bd db 26 b7 be 60 be c4 bc 22 58 32 3e
       -0.10424684 -0.35771832 -0.02401656 0.17416432
0001d0 83 94 30 be b2 e7 4f 3e 53 3c 4d 3e 4e 58 d0 3d
       -0.17244153 0.20303228 0.20042543 0.10173093
0001e0 e9 ba bd be aa 62 59 3e 03 45 30 3e 4c 82 87 bc
       -0.37056664 0.21229044 0.17213826 -0.016541623
0001f0 af d3 b9 bd 56 dd 83 3d f0 34 65 bd d7 b4 2e be
       -0.090735786 0.06438701 -0.05595869 -0.17061172
000200 48 0a b2 be fa d4 13 be 75 94 06 3e 66 62 a5 bd
       -0.3477347 -0.14436713 0.1314257 -0.08075409
000210 ac fb c8 3d 1d c8 76 3d 13 b9 2a 3d 72 96 f6 bd
       0.098136276 0.060249437 0.041680407 -0.12040414
000220 10 9d 17 3e 89 37 a2 bb c3 d9 94 bd 14 00 4a 3e
       0.14806008 -0.004950468 -0.07268097 0.19726592
000230 dc d2 40 bd d6 21 5f 3e 69 1c 02 be 52 51 dd bd
       -0.04707609 0.21790251 -0.1270615 -0.10806526
000240 d2 54 9a bd ed b2 96 3d cd 71 cd 3d 70 04 be bd
       -0.075357094 0.07358346 0.100314714 -0.0927819
000250 1b a0 db bd e8 dd 9b bd 54 6c ff 3d 49 cd 17 be
       -0.10723897 -0.07610685 0.12471834 -0.14824404
000260 e9 f7 7c 3e ba ce ee 3d 75 20 ce bc 00 22 ab 3e
       0.24703945 0.11660524 -0.025161961 0.33424377
000270 13 2a 05 3e a5 ec a9 3d 40 bc 02 3e 1d c3 d2 3b
       0.13004331 0.082970895 0.12767124 0.0064319507
000280 de 92 99 bd 77 94 49 be 41 ca 5d be 48 92 42 3d
       -0.07498716 -0.19685541 -0.21659185 0.047502786
000290 0f a3 3d 3d 10 69 e9 3d 03 84 4c 3e 29 7b d3 bc
       0.046298083 0.11396992 0.19972233 -0.025815563
0002a0 fd b3 d6 3e ba e9 9f 3c f1 87 56 be aa 20 d1 bd
       0.41934195 0.01952063 -0.20950295 -0.10211308
0002b0 9c 17 0c bd 3b 8f f3 3b 86 91 33 3d 98 cf 28 bd
       -0.034202203 0.007432846 0.043839954 -0.0412136
0002c0 0a 4c d7 3c 13 47 67 bd 6e 01 16 bd a8 a3 46 3e
       0.026281375 -0.056464266 -0.036622457 0.19398367
0002d0 9e 53 a2 bd 41 5c e5 3d 09 9e f6 bd b1 cb 0a 3d
       -0.07926105 0.11199237 -0.120418616 0.03388566
0002e0 73 d7 c3 bc 23 bc 48 be 4f 6d 2e 3e 0a b0 a9 bd
       -0.023906445 -0.19603018 0.17033885 -0.0828553
0002f0 10 40 c6 bd 3e f9 b8 3d b1 20 2d 3d 85 5e 95 3d
       -0.09680188 0.09031914 0.042267505 0.07293419
000300 fc d3 ff bd fc 3c 8e bd 4c e5 9b 3d b1 de 8c 3c
       -0.12491605 -0.069452256 0.07612094 0.017196031
000310 cd b5 7f 3e 5d 0c 60 3d 63 70 7c 3d f3 f3 05 be
       0.24971695 0.05469929 0.061630618 -0.1308134
000320 89 7d 25 be 49 3c 53 be 6a ab 7d bd 27 b8 a9 3d
       -0.16161169 -0.20628466 -0.06193105 0.082870774
000330 0f 2f b6 bd 06 40 e7 3d 69 03 9a 3d b3 fc 43 be
       -0.088956945 0.112915084 0.07520182 -0.19139366
000340 87 96 86 be 7c 4a 8c 3e 17 d8 11 be 2d 74 26 be
       -0.26286718 0.27400577 -0.14242588 -0.16255255
000350 3a 47 41 bd cf 03 3b 3e 88 9c 7a 3d d4 d4 65 3d
       -0.047187068 0.18263172 0.061184436 0.05611117
000360 71 e6 6e 3d 7d 99 32 bd 13 7c b5 3e 8f d4 12 be
       0.058325235 -0.04360341 0.35446224 -0.14338897
000370 74 98 9c 3e 4f cc 07 be a1 fb 65 3d 42 3f 5c bd
       0.30585063 -0.13261531 0.056148175 -0.053771265
000380 56 22 bd 3c bb 38 33 3e 74 5f 9a 3d 16 54 fe 3b
       0.023087662 0.1750211 0.075377375 0.0077614887
000390 b3 75 b9 be 6e cf 90 3d c0 23 d2 3d 8c c8 f9 bd
       -0.3622261 0.07070814 0.10260725 -0.121964544
0003a0 c1 80 94 bb b1 91 b2 3e 06 67 43 3e e0 9e 4f be
       -0.00453195 0.3487678 0.19082269 -0.2027545
0003b0 4c 1a 2d be fd b8 d2 bc 90 69 ec bc eb 26 2d bd
       -0.16904563 -0.025722975 -0.02885893 -0.042273443
0003c0 dd 85 62 3b c0 72 b2 bd da e4 b6 be bd 3e 24 bd
       0.0034564652 -0.08713293 -0.35721475 -0.040098894
0003d0 62 fd a9 3c 31 59 25 bd 84 68 86 be 92 8b 3f bb
       0.020750705 -0.040368263 -0.26251614 -0.0029227477
0003e0 46 dc e8 bd 53 e6 09 be 12 c4 46 be ee 63 59 3d
       -0.11370139 -0.13466768 -0.19410732 0.053073816
0003f0 cf bc 0d be cf f3 31 3c 9a 2c c5 3d 23 52 2b be
       -0.13841556 0.010861351 0.09627648 -0.16730551

fc2.bias f4 [64]
000000 89 f0 a2 bd 2a 01 08 3d ea 5e 20 3e 66 fc be bd
       -0.07956035 0.033204235 0.15661207 -0.09325485
000010 62 b6 1a 3e 91 5b 4c be cb b6 c0 bd 9a 2f 95 3d
       0.15108636 -0.19956805 -0.09409865 0.0728447
000020 be 7c 9c 3e 63 e0 d7 3e 7a 7c 9e 3c bf 63 51 3e
       0.3056392 0.4216338 0.019346464 0.20448206
000030 6e 97 20 3e 8d 23 1a 3c eb 25 06 bd 97 a2 12 3e
       0.15682766 0.00940789 -0.032751005 0.14319836
000040 1b e8 2c 3e 18 85 9d bd e8 63 90 bd e4 91 19 3e
       0.16885416 -0.07691401 -0.070503056 0.14997059
000050 df 6a 3d 3e 0f 79 f9 3e c2 23 ba bc d6 f6 9d 3c
       0.184978 0.48725173 -0.022722129 0.01928274
000060 64 c8 c3 bd a9 0e 97 bd f4 19 06 3d 94 3e 59 bd
       -0.09559706 -0.07375843 0.032739595 -0.053038195
000070 b0 70 d6 bd 06 2d 71 3e ce 18 0e bd a1 05 a6 3b
       -0.10470712 0.23552331 -0.034691624 0.005066589
000080 e7 4a 63 3d 83 4b 4c 3d 3a ac 51 3d 50 03 c0 bc
       0.055491354 0.0498767 0.05118964 -0.02343908
000090 8b c9 df bc 53 c1 63 be e8 27 02 3e ed 3d 3c bd
       -0.027317783 -0.22241716 0.12710536 -0.045957495
0000a0 2a 70 f3 bd a1 2f f4 3e 3a 4c 49 3e c0 c2 c7 3b
       -0.11886628 0.47692588 0.19657984 0.006096214
0000b0 c3 5c 69 3e 77 b3 35 bd eb df 97 3e 66 a8 06 be
       0.22789292 -0.044360604 0.29663023 -0.13150176
0000c0 f7 a3 93 3d e5 01 99 bd eb 3e 1c be 5f d7 cc 3e
       0.07209008 -0.074710645 -0.15258376 0.40008065
0000d0 70 e1 0e be 86 cd 61 3c 09 bc db 3c a5 69 1b be
       -0.13953185 0.013781911 0.02682306 -0.15177019
0000e0 df 03 36 be c3 ef 5b be 88 a1 e7 3d 1a 6b f5 3c
       -0.17774914 -0.2147818 0.113101065 0.029958297
0000f0 fe d3 da bc 37 de 81 3e 01 3b dc 3d 34 dc 23 be
       -0.026712414 0.2536485 0.107534416 -0.1600197

fc3.weight f4 [4, 64]
000000 3b 76 93 be c2 e2 2d 3e d4 81 71 3e 6d b7 9a be
       -0.2880114 0.16981032 0.23584682 -0.30218068
000010 57 43 5b 3e b5 90 8c be 57 13 e0 bd 57 43 4a be
       0.21412407 -0.27454153 -0.10941189 -0.1975225
000020 aa c1 fb 3d 99 91 05 3e 41 c0 ed bd 64 72 e1 3d
       0.12292798 0.13043822 -0.11608935 0.110081464
000030 32 2c 00 3f 42 67 17 3e 37 c6 99 bd f0 31 83 3d
       0.50067437 0.14785483 -0.075085096 0.06406009
000040 45 79 87 3e 19 af 04 bd e9 83 7e 3b 29 01 20 3e
       0.2645971 -0.03239355 0.0038835949 0.15625443
000050 0a a0 bc 3d df e6 20 3e e1 33 8c 3e 0c 1c 3b 3e
       0.092102125 0.1571307 0.2738333 0.18272418
000060 98 d9 4c 3e c9 4b 37 be 53 f7 b4 be 35 92 d2 3e
       0.2000488 -0.17900003 -0.35344943 0.41127172
000070 a6 97 c3 3a 8e 43 69 3d 19 81 09 be b4 3c d8 3d
       0.0014922514 0.05694919 -0.13428153 0.10558453
000080 4f 51 88 3e 12 81 c3 3e d9 ae f9 3d 3f da 4b 3e
       0.26624534 0.3818441 0.12191553 0.19907473
000090 8d 0d ff 3d 1e 90 73 be 13 8f b0 3d 8d c5 bd 3d
       0.124537565 -0.23785445 0.08621039 0.092661954
0000a0 8f c9 30 be 68 82 1a 3e 61 08 f3 3d 12 38 b2 3e
       -0.17264389 0.15088809 0.118668325 0.34808403
0000b0 89 54 94 3e 0e d8 3f bc bd 1b 3e 3e 6c f2 3c 3d
       0.28970745 -0.011709226 0.18565269 0.04612963
0000c0 23 d0 ea 3b f7 f5 f5 3d 06 fe 9c be a5 bf 93 3e
       0.007165925 0.12009805 -0.30662555 0.2885715
0000d0 fa fb c5 3d 7a 64 93 be 95 e4 e8 bc 8e 3b a8 bd
       0.09667201 -0.28787595 -0.028429309 -0.08214484
0000e0 cd 49 07 be 94 d0 07 bd 2a 5a d4 3e 2a 91 a1 3e
       -0.13211747 -0.0331579 0.4147504 0.31556064
0000f0 6e ac 9f 3c 4a ed 55 3e 10 58 02 3e 7e c6 15 3e
       0.0194914 0.208913 0.12728906 0.146265
000100 0f 70 25 be 61 d3 09 3e 02 ac 50 3e 35 58 57 be
       -0.16156028 0.13459541 0.20378116 -0.21029742
000110 00 c7 fe 3d 98 d8 2a be a2 a3 a1 bd d9 f2 e6 bd
       0.124403 -0.16684186 -0.078925386 -0.11276788
000120 5d e9 0c 3d c3 4b df 3d 66 d5 e7 3d 5a c7 41 3e
       0.03440224 0.10903122 0.113199994 0.18923703
000130 7f 4f 94 3e e2 93 0b 3e 51 77 9f bc d1 b3 01 3e
       0.289669 0.13630632 -0.019466074 0.12666251
000140 b7 be 8c 3e f0 ed ca 3d f9 0d e3 bd ad 63 e4 3d
       0.27489254 0.09908664 -0.110866494 0.11151824
000150 8a 6f 27 3e e8 54 47 3e 9e 5f d6 3e d8 ab ee 3d
       0.16351143 0.19465983 0.41869825 0.1165387
000160 dc 8d f3 3e 7c 35 83 be 03 7b 0a be 4e 51 1e 3f
       0.47569168 -0.25626743 -0.13523488 0.6184281
000170 1c f8 aa bd 72 78 38 3e a6 1b 0d 3d ab 45 32 3e
       -0.08348104 0.18014696 0.034450196 0.17409389
000180 21 e5 13 3e d1 1d af 3e d4 db 08 3e 56 f6 81 3e
       0.14442874 0.34202436 0.13365108 0.25383252
000190 c4 9e f0 3d 70 3a 42 be c3 ec 62 3e 92 76 84 3d
       0.11749032 -0.18967605 0.2216063 0.06467928
0001a0 9e 5c fe 3e 3c 31 34 3e 67 d8 e0 3d 8a 9d 0b 3f
       0.49680036 0.17596906 0.109787755 0.5453726
0001b0 c2 d7 4e 3e 9f 1f f8 bd 17 8b 35 3e dd 29 be bd
       0.20199493 -0.12115406 0.1772884 -0.092853285
0001c0 42 ef dd 3d e5 05 99 3d c6 5f da bd cf 2d 8b 3e
       0.108366504 0.074718274 -0.106627986 0.27183387
0001d0 cf c8 c7 3d e2 fb 2f 3e 74 85 93 3d fb 1b ac bd
       0.09755098 0.1718593 0.072031885 -0.08403774
0001e0 f5 45 4e be 96 2b d1 bd a4 fb c8 3e a4 56 9d 3e
       -0.20143874 -0.102133915 0.39254487 0.30730164
0001f0 2a 71 b6 bb a7 23 10 3d 4c ce 02 be ba 2c dc bd
       -0.0055676894 0.03519025 -0.12774009 -0.107507184
000200 ce e6 86 be 78 96 35 3e cf f0 5d 3e 41 32 4c be
       -0.26347965 0.1773318 0.21673892 -0.19941045
000210 1d eb 34 3e 73 ce 53 3e 9e b1 88 3e 6b 81 9c 3d
       0.17667814 0.20684223 0.2669801 0.07641872
000220 ef 03 84 3d 9a f1 33 3e f3 ed 89 bc 27 84 90 3e
       0.06446063 0.17572632 -0.016837096 0.28225824
000230 aa 7a 8b 3e b5 5b 50 3e 28 ea 19 be 48 2d 5a 3e
       0.27242023 0.20347483 -0.1503073 0.21306336
000240 13 0d 8b 3e bb e0 63 3d 5c 67 0b be 2e 8d 95 3d
       0.27158412 0.05563424 -0.13613647 0.073023185
000250 f5 61 39 3d 67 25 4b 3e dd 8e 10 be c4 08 8b 3e
       0.045259435 0.19838487 -0.14116998 0.27155125
000260 d0 29 67 3d 7b 3f 85 be 9e 91 f0 bd b9 8b 76 be
       0.05643636 -0.26024994 -0.11746524 -0.24076737
000270 0d 08 96 3d 16 33 a7 3e 36 2e 91 bd d6 24 73 3c
       0.07325754 0.32656163 -0.07088892 0.014840325
000280 05 16 00 bf ca 23 f9 3d 01 38 94 3e 5c f8 91 3e
       -0.500336 0.12165029 0.28948978 0.28509796
000290 10 83 d3 bc 9f 3c ae bd a2 8d da 3d f6 88 b2 3e
       -0.025819331 -0.08507656 0.106715456 0.34870118
0002a0 7c b4 ff 3e 0e e2 2b 3e 18 44 64 3e 35 c8 fb 3e
       0.49942386 0.16785452 0.222916 0.49176183
0002b0 f2 a8 2b 3e 2f 87 5c 3c 36 0b 30 3e a5 98 46 be
       0.16763666 0.013459965 0.17191777 -0.19394167
0002c0 97 c7 78 3e a4 c9 8c 3d da 53 cc bd 34 1d b7 3e
       0.24294887 0.068743974 -0.09976931 0.35764468
0002d0 1d 81 f0 bb ce ac 7d 3c a3 f8 90 3d 2a 58 2f be
       -0.0073396103 0.015483094 0.07078674 -0.17123476
0002e0 af a6 b9 bd be 53 57 be db 4c c4 3e ff 4f 5a 3e
       -0.090649955 -0.21028039 0.38339886 0.21319579
0002f0 f6 7e c8 3e 3b 3e f1 3d dc a4 d5 3d 5c 8b 02 bf
       0.39159364 0.11779448 0.10431835 -0.50993896
000300 b5 f7 da 3d 12 78 60 3e c2 b9 57 3d 98 bd 54 be
       0.106917776 0.21920803 0.052667387 -0.2077545
000310 20 bf 0d 3d 20 37 6f be e9 08 7f be 72 ce e3 3d
       0.0346061 -0.23360872 -0.24905743 0.11123361
000320 6f a5 32 3e 85 a0 40 3e e7 e6 0e 3e 1f 48 e9 3d
       0.1744592 0.18811233 0.1395527 0.11390709
000330 d9 2a a7 3e e8 10 b7 3e fa 35 4e 3e 66 3e 85 3d
       0.32649878 0.35755086 0.20137778 0.06506042
000340 40 57 b8 3e 2a 99 10 be 77 36 9e 3e f3 76 3e 3e
       0.36004066 -0.14120927 0.30900928 0.18600063
000350 68 5d 9f 3d 1a 09 66 3e 7f 93 a6 bd 2f 6e 91 3e
       0.07781488 0.2246441 -0.081336014 0.28404376
000360 1c e3 1a 3f 4f 9a ab bd 3a 2b 34 be 62 bb 31 3f
       0.6050279 -0.083790414 -0.17594615 0.6942655
000370 27 6a ac 3d 1e 9c 5d 3c 4c 8e 80 be 78 71 b8 3d
       0.084186845 0.013525991 -0.25108564 0.090060174
000380 95 48 1a bd 5f 96 f7 3e 25 10 4e 3b 6f 58 d2 3e
       -0.037666876 0.48356912 0.0031442728 0.41083094
000390 cd b6 49 bd bc 8e b9 be 42 95 8b 3e 57 f3 74 3e
       -0.049246598 -0.3624171 0.27262312 0.23920952
0003a0 c2 ce 11 be c1 e3 56 3e 49 44 0a 3e 0d aa 23 bc
       -0.14239028 0.20985319 0.13502611 -0.009989274
0003b0 b7 4e 89 3e bf 84 65 be b1 45 05 3e d7 fc 22 be
       0.26817867 -0.2241392 0.13014866 -0.15916763
0003c0 59 1d 9f 3d 2e cd bc ba 56 c9 e4 3d 38 e3 8c 3e
       0.077692695 -0.001440441 0.11171214 0.27517104
0003d0 b9 08 51 bc c7 a5 9b 3d d7 c8 12 3e aa 02 17 3e
       -0.012758427 0.07599979 0.14334427 0.1474711
0003e0 50 5f 84 be 57 96 a8 be 62 da 96 3e 4b 85 08 3e
       -0.25853968 -0.329272 0.29463488 0.13332097
0003f0 30 fa b3 be d6 26 86 3d 04 21 de bd aa c6 aa 3e
       -0.35151815 0.06550376 -0.10846141 0.33354694

fc3.bias f4 [4]
000000 1f cf 8e 3e 59 98 81 3e 78 0f 0a 3e d5 20 3d 3e
       0.27892396 0.25311545 0.13482463 0.18469556
