checkpoint_dqnprio.pth (torch_old, 28463 bytes, 6 tensors)

fc1.weight f4 [64, 37]
0.05725352 -0.045170866 -0.07108793 0.002674739 0.013426302 0.28095543 -0.111658804 -0.006599278
-0.23211336 -1.5208297 -0.07618639 -0.018092597 -0.10127319 -0.16785276 -0.22596587 0.035219375
0.018458422 0.051106364 0.03402473 0.22571032 0.004893991 0.06550993 0.08695075 0.10300399
-0.108089074 0.0065247957 0.05683276 -0.105490215 0.08389386 0.07589966 -0.04211426 0.02530357
0.00945512 0.02951234 -0.11740803 -0.039445225 -0.005321274 0.14096785 0.11992377 0.17279965
0.15184318 -0.095912 0.30881837 -0.73498845 -0.84369355 -0.5964281 -1.568703 0.07963296
0.0810655 0.10126518 0.13082454 0.09271605 0.08222747 0.07914858 0.15948611 0.13857487
-0.001197588 -0.04873611 -0.03365749 -0.001621309 0.04065383 0.060970336 0.033913713 0.029852245
0.07962818 0.07260922 -0.058588557 0.060975976 0.13004795 0.183593 0.2220413 0.034857765
0.00071023393 0.0038001216 0.12525097 0.14716984 0.16855216 -0.19904669 -0.0064411713 -0.07345619
0.039115615 0.15271172 0.0076917014 -0.29893747 -0.118357435 -0.11347576 0.1576232 0.11755619
0.12200637 0.13420004 0.03034435 0.005483649 -0.07902523 -0.18373378 -0.063069426 -0.090509534
0.06706545 -0.12397974 0.11455266 -0.220477 0.32900882 0.16631636 -0.15945378 -0.09879588
-0.051552266 0.0068625463 0.043320287 -0.4814922 0.046800658 -0.003049627 -0.045562267 0.2263038
-0.07983319 -0.21230845 0.13433823 -0.019677512 -0.14608979 -0.0026535254 0.031082077 0.11260482
0.25821853 -0.03247346 -0.2239963 0.10626725 -0.10930051 -0.12398541 -0.059349176 -0.1490596
-0.26082245 -0.0077420026 -0.030764716 0.08559576 -0.4349449 -0.4401919 0.121480465 -0.31865478
0.09648847 -0.26538953 -0.14151189 0.14772592 0.35956183 0.058796447 0.20650837 -0.08779018
-0.31635252 -0.44085142 -0.043708146 -0.026053175 -0.10302645 -0.097247675 -0.1859319 -0.101185866
-0.13301641 0.09726654 0.17600739 -0.033024162 -0.016310265 -0.1408163 -0.108470425 0.061451375
-0.034822006 -0.12747702 -0.085306354 -0.09695078 -0.16038401 -0.0040450026 0.08703848 0.23994724
-0.14473079 0.0016390184 0.05844859 0.046389297 0.059083052 0.2908406 -0.5637729 -0.28076518
-0.37169823 -1.4924494 0.047182787 -0.12822548 0.018493375 0.1944088 0.17958893 -0.00024232328
0.008815943 0.010719702 -0.024135573 0.05268151 -0.028847642 0.10628623 0.34684956 -0.30405194
-0.0787228 -0.33073372 -1.349548 -0.0016615696 -0.054544058 -0.03696628 -0.041066278 0.016389536
0.023347449 0.06821199 -0.13382415 0.06185393 -0.090371415 0.107016236 0.1309931 0.050770257
0.049521793 0.10364434 0.033699133 -0.10333947 0.083970174 0.07519295 0.19098891 0.06973957
-0.08393279 -0.11890818 0.14172518 -0.13592833 0.022217663 0.015630426 0.0043651625 -0.21389619
0.13175355 0.18082185 -0.112122834 -0.08623 -0.01963275 0.010047697 -0.03356157 0.096003585
-0.08420139 0.082591824 0.06211664 0.29635987 0.053250622 -0.130382 -0.10600929 0.23516217
-0.16425821 -0.041438635 -0.12282655 -0.06904525 0.27751768 -0.08668693 -0.086451165 -0.014475086
0.045705333 -0.040474296 -0.1476532 -0.1456316 -0.0983679 0.01565273 0.18413115 -0.08486221
00000000: ab82 6a3d 1605 39bd 8c96 91bd ad4a 2f3b
00000010: fef9 5b3c 64d9 8f3e 5fad e4bd c23e d8bb
00000020: 20af 6dbe 8caa c2bf 9c07 9cbd ed36 94bc
00000030: 5168 cfbd 98e1 2bbe 9963 67be 3142 103d
00000040: 1e36 973c e854 513d 845d 0b3d 9b20 673e
00000050: c65d a03b 122a 863d 3c13 b23d c2f3 d23d
00000060: ce5d ddbd f4cd d53b 78c9 683d 410b d8bd
00000070: 8bd0 ab3d 4871 9b3d 0180 2cbd 6f49 cf3c
00000080: a6e9 1a3c ddc3 f13c 9f73 f0bd 5191 21bd
00000090: 155e aebb e059 103e 989a f53d 64f2 303e
000000a0: c77c 1b3e 836d c4bd 711d 9e3e 3428 3cbf
000000b0: 4dfc 57bf 83af 18bf 43cb c8bf 9b16 a33d
000000c0: ab05 a63d 1e64 cf3d def6 053e eae1 bd3d
000000d0: e066 a83d a718 a23d 5450 233e 92e6 0d3e
000000e0: 63f8 9cba 849f 47bd 70dc 09bd 1a82 d4ba
000000f0: a184 263d 08bc 793d 1be9 0a3d b28c f43c
00000100: 1914 a33d 25b4 943d 8efa 6fbd f2c1 793d
00000110: 4a2b 053e ceff 3b3e cb5e 633e 04c7 0e3d
00000120: fe2e 3a3a 760b 793b ca41 003e b1b3 163e
00000130: f098 2c3e e5d2 4bbe 7610 d3bb 3370 96bd
00000140: b237 203d 7660 1c3e ab0a fc3b 550e 99be
00000150: 6265 f2bd fb65 e8bd fa67 213e 4dc1 f03d
00000160: 7ade f93d bc6b 093e b794 f83c 2fb0 b33b
00000170: fbd7 a1bd b524 3cbe 8b2a 81bd 105d b9bd
00000180: 9c59 893d 17e9 fdbd 969a ea3d b9c4 61be
00000190: d873 a83e d64e 2a3e da47 23be 7f55 cabd
000001a0: 7828 53bd 36df e03b 9d70 313d 2586 f6be
000001b0: 0cb2 3f3d 40dc 47bb 809f 3abd 2fbc 673e
000001c0: 957f a3bd 6367 59be f68f 093e bc32 a1bc
000001d0: 9098 15be c5e6 2dbb d79f fe3c 5b9d e63d
000001e0: 3835 843e e402 05bd 495f 65be a5a2 d93d
000001f0: f2d8 dfbd 10ec fdbd 1f18 73bd 14a3 18be
00000200: 858a 85be a0b0 fdbb 4906 fcbc d44c af3d
00000210: 19b1 debe d560 e1be c0ca f83d b826 a3be
00000220: bf9b c53d 23e1 87be 7ee8 10be 7745 173e
00000230: 7d18 b83e 8bd4 703d ee76 533e 57cb b3bd
00000240: f5f8 a1be 47b7 e1be 5007 33bd 786d d5bc
00000250: 88ff d2bd ca29 c7bd ef64 3ebe 893a cfbd
00000260: 7435 08be ae33 c73d 483b 343e 5844 07bd
00000270: 1b9d 85bc 2632 10be be25 debd 70b4 7b3d
00000280: 85a1 0ebd 5689 02be 19b5 aebd 218e c6bd
00000290: b53b 24be f18b 84bb 3b41 b23d bbb4 753e
000002a0: 4f34 14be 55d4 d63a ca67 6f3d b402 3e3d
000002b0: 1201 723d 0fe9 943e 6c53 10bf 74c0 8fbe
000002c0: 3b4f bebe 9508 bfbf bd42 413d 8a4d 03be
000002d0: 6b7f 973c 1a13 473e 29e6 373e 2918 7eb9
000002e0: bf70 103c b0a1 2f3c f7b7 c5bc 91c8 573d
000002f0: e451 ecbc 98ac d93d 4496 b13e b2ac 9bbe
00000300: 6b39 a1bd ee55 a9be fdbd acbf 06c9 d9ba
00000310: 9769 5fbd f469 17bd 1d35 28bd 5943 863c
00000320: 2643 bf3c bab2 8b3d 3309 09be 8c5a 7d3d
00000330: a614 b9bd 542b db3d 0e23 063e 79f4 4f3d
00000340: 5dd7 4a3d 7c43 d43d 1a08 0a3d a5a3 d3bd
00000350: 8ef8 ab3d c3fe 993d 9992 433e 9fd3 8e3d
00000360: f4e4 abbd 2286 f3bd 6820 113e cc30 0bbe
00000370: d101 b63c 610b 803c a309 8f3b 9a07 5bbe
00000380: 67ea 063e 5d29 393e a8a0 e5bd 5b99 b0bd
00000390: dcd4 a0bc 199f 243c db77 09bd 879d c43d
000003a0: c771 acbd e725 a93d 056e 7e3d 7bbc 973e
000003b0: 531d 5a3d dc82 05be 661b d9bd 5ace 703e
000003c0: 4e33 28be 8fbb 29bd 7c8c fbbd 9967 8dbd
000003d0: cc16 8e3e eb88 b1bd 4f0d b1bd e928 6dbc
000003e0: 8435 3b3d 60c8 25bd 6732 17be 7320 15be
000003f0: 1c75 c9bd 273a 803c e08c 3c3e 3dcc adbd

fc1.bias f4 [64]
0.16073789 0.07789133 -0.10658867 -0.13180149 0.15574907 -0.019782348 -0.061377976 0.08149361
0.01982348 -0.28387797 0.12913571 0.10437093 0.033667237 0.12615107 0.001902086 -0.18389298
0.07821379 0.022287874 0.04235027 -0.2254097 -0.16773783 0.03740421 -0.079752505 -0.07945736
-0.055671215 -0.041154966 -0.04044182 -0.20146398 0.095051974 0.1232457 -0.123204626 -0.16404338
0.20511287 -0.004191928 -0.1637281 0.0002039164 -0.0044389106 0.0097641535 0.007607384 -0.09371436
-0.09719031 -0.0058271023 -0.14587823 0.20410402 0.069341555 -0.09611519 0.0030536782 -0.2551065
-0.13595313 -0.0059367116 -0.14510418 -0.062479466 -0.09220878 -0.116741434 -0.27710003 -0.034285914
0.12351226 -0.05666325 -0.04043714 -0.14536127 -0.06641656 0.014002434 0.022228504 0.07156181
00000000: 7998 243e 7d85 9f3d 294b dabd f8f6 06be
00000010: af7c 1f3e 970e a2bc 7967 7bbd 1fe6 a63d
00000020: da64 a23c 7458 91be 273c 043e 6dc0 d53d
00000030: a8e6 093d bf2d 013e 6a4f f93a 714e 3cbe
00000040: 8d2e a03d 0f95 b63c 7a77 2d3d cdd1 66be
00000050: 77c3 2bbe 2835 193d 4855 a3bd 8aba a2bd
00000060: 8007 64bd 1c92 28bd 52a6 25bd 934c 4ebe
00000070: 9caa c23d 3e68 fc3d b552 fcbd fdfa 27be
00000080: 1c09 523e 715c 89bb 57a8 27be 64d2 5539
00000090: 4874 91bb d4f9 1f3c 5d47 f93b 50ed bfbd
000000a0: b70b c7bd 47f1 bebb 1a61 15be a500 513e
000000b0: f202 8e3d 0ad8 c4bd 3820 483b 529d 82be
000000c0: 4c37 0bbe bf88 c2bb 3196 14be 78ea 7fbd
000000d0: f5d7 bcbd 2216 efbd 0ee0 8dbe 636f 0cbd
000000e0: fff3 fc3d b917 68bd 6aa1 25bd 96d9 14be
000000f0: 6805 88bd 776a 653c 8d18 b63c 008f 923d

fc2.weight f4 [64, 64]
-0.02200592 -0.11576968 -0.042367302 -0.055331487 0.1998738 -0.13033774 0.14712119 -0.11397257
-0.14991002 -0.0698564 0.0538671 -0.0040790443 -0.028793354 0.13966462 0.050423436 -0.25074366
-0.10485837 -0.1494287 -0.023490023 -0.2707616 -0.055189405 0.35034105 -0.14856575 0.4401835
-0.037677143 -0.2238705 0.042480703 0.021202786 0.07818214 0.2164667 -0.00644106 -0.55024654
-0.006515544 0.13282076 -0.0474343 0.15311913 -0.062456813 0.41297585 0.21913789 -0.19284739
-0.07337915 -0.07619601 -0.085016795 -0.023008404 0.029202187 -0.0692602 0.21222332 -0.057184443
-0.15897301 -0.08724493 -0.03770187 -0.23573992 -0.19025828 -0.25745487 -0.058897518 -0.07342197
-0.20518978 -0.03482974 -0.26345047 0.07344124 0.06350731 0.14267242 -0.13661899 0.12476338
-0.025506372 0.18977399 -0.003407448 -0.13668412 0.061181754 0.100686714 0.098883346 0.020502249
-0.03455065 -0.028724233 -0.06844169 -0.13309559 -0.20009904 0.36254498 0.23623922 0.043865412
0.12526146 0.091449045 0.023973174 0.08124443 0.04752153 -0.3118934 -0.08699533 0.55951345
0.05147623 0.07165191 -0.16510595 -0.22443627 0.00703143 -0.34596837 0.1304343 -0.004730507
0.0096522495 0.0010499486 -0.00044519044 -0.1420676 0.0053563695 -0.19015387 -0.08382424 0.014297867
-0.3157185 0.0011647801 0.03824497 -0.14182386 -0.08961184 -0.11745283 -0.40507868 0.003926266
-0.26665685 0.25270152 0.13857852 0.2026608 -0.18064259 -0.02381023 -0.2576203 0.08875879
0.011545686 0.114046566 0.14738736 -0.054967575 -0.22712316 -0.14376071 -0.010219615 -0.15053394
-0.012197235 0.11228617 0.0026755277 -0.05972295 0.06406258 0.117055915 -0.058054302 0.16348372
0.046844654 -0.07482635 0.11689529 0.13395834 0.051980365 0.3678832 -0.21889468 -0.09145593
-0.056767378 0.12359632 0.08330039 -0.014345107 -0.027118362 0.21952157 0.04545557 0.22370633
0.12631282 -0.026258472 0.0978148 0.00898006 0.06532657 0.3522359 -0.009039684 -0.06634324
0.0366033 -0.026886044 -0.11582598 0.15789795 0.15855142 0.33324617 0.29628828 0.059200924
0.24020897 -0.07686527 -0.09931375 0.011236129 0.01323904 0.055927336 0.15736462 -0.05029893
-0.017444827 -0.0930105 0.023810357 0.06932672 -0.14262521 0.1527544 -0.1677433 0.02839726
0.06805977 -0.16907541 0.2166302 0.09095478 -0.00054689276 0.16170606 -0.17093493 0.18120517
0.073492 -0.2941387 0.018928887 -0.034500603 -0.44267806 -0.028743582 0.1212308 0.27154678
-0.08604632 -0.11727907 -0.09606699 -0.270301 -0.07407162 -0.042034753 -0.026809277 0.02095587
-0.18056616 0.047488835 0.05976518 -0.22924682 0.013785776 -0.27789375 -0.001521925 -0.025198733
0.040737 -0.14666326 0.064975135 -0.078665294 0.012409202 -0.47658244 0.19846825 0.0067325393
-0.028825738 0.1693417 -0.0057625035 0.15994179 -0.08833745 -0.2141953 0.59593856 0.13475008
0.05468109 0.068240255 0.20587714 -0.11255478 0.10034438 0.015721124 -0.34361678 -0.2588927
-0.001405358 -0.32116932 -0.17660508 0.10897885 0.0887995 0.037626762 0.14913383 0.004434764
0.042849027 -0.24801111 -0.339076 0.04678573 -0.056440096 -0.1650986 -0.28599074 -0.28115326
00000000: c245 b4bc a718 edbd 5689 2dbd 45a3 62bd
00000010: b8ab 4c3e 4277 05be f0a6 163e 736a e9bd
00000020: 0382 19be df10 8fbd c0a3 5c3d 81a9 85bb
00000030: 0ae0 ebbc 3e04 0f3e ce88 4e3d 7961 80be
00000040: fcbf d6bd d603 19be 266e c0bc 44a1 8abe
00000050: 490e 62bd e75f b33e 9f21 18be bb5f e13e
00000060: 5953 1abd 4f3e 65be 3f00 2e3d 77b1 ad3c
00000070: f51d a03d 72a9 5d3e 870f d3bb f5dc 0cbf
00000080: 5880 d5bb 2a02 083e 784a 42bd 43cb 1c3e
00000090: b7d2 7fbd 9271 d33e af65 603e c979 45be
000000a0: cf47 96bd a70c 9cbd 491d aebd 1f7c bcbc
000000b0: 6d39 ef3c 4bd8 8dbd 1251 593e 3c3a 6abd
000000c0: d2c9 22be 78ad b2bd 476d 1abd ce65 71be
000000d0: 11d3 42be 20d1 83be 863e 71bd 425e 96bd
000000e0: 451d 52be a1a9 0ebd fbe2 86be 5c68 963d
000000f0: 1f10 823d b818 123e d9e5 0bbe f183 ff3d
00000100: bdf2 d0bc 1d54 423e 7e4f 5fbb ecf6 0bbe
00000110: b899 7a3d d634 ce3d 5a83 ca3d 55f4 a73c
00000120: fb84 0dbd 154f ebbc 282b 8cbd 364a 08be
00000130: c3e6 4cbe 7f9f b93e b2e8 713e 38ac 333d
00000140: 8a44 003e a349 bb3d 6463 c43c 7b63 a63d
00000150: f0a5 423d 7eb0 9fbe 9c2a b2bd 463c 0f3f
00000160: bdd8 523d 3dbe 923d 8911 29be 9fd2 65be
00000170: e967 e63b c422 b1be 9290 053e 5e02 9bbb
00000180: 7824 1e3c 6e9e 893a 7368 e9b9 2b7a 11be
00000190: 7c84 af3b b2b7 42be 0bac abbd 9a41 6a3c
000001a0: dba5 a1be 89ab 983a c2a6 1c3d 463a 11be
000001b0: 6a86 b7bd 1c8b f0bd 7966 cfbe e8a7 803b
000001c0: 3f87 88be 1862 813e 87e7 0d3e 5086 4f3e
000001d0: 5ffa 38be ac0d c3bc cfe6 83be 2bc7 b53d
000001e0: 1e2a 3d3c 3f91 e93d b6ec 163e ae25 61bd
000001f0: f992 68be 0236 13be 2c70 27bc 9225 1abe
00000200: e9d6 47bc 4bf6 e53d e857 2f3b 0da0 74bd
00000210: 3e33 833d 03bb ef3d 59ca 6dbd 4768 273e
00000220: 2ee0 3f3d 8f3e 99bd cc66 ef3d 602c 093e
00000230: 5de9 543d 305b bc3e ed25 60be 3f4d bbbd
00000240: e984 68bd 1120 fd3d 6599 aa3d bd07 6bbc
00000250: 5427 debc 43ca 603e 9f2f 3a3d 4613 653e
00000260: 2658 013e 021c d7bc 2053 c83d 1a21 133c
00000270: f0c9 853d 4458 b43e 2f1b 14bc f7de 87bd
00000280: 58ed 153d 1f40 dcbc 2c36 edbd 00b0 213e
00000290: 4e5b 223e 3e9f aa3e 19b3 973e ab7c 723d
000002a0: 57f9 753e 8a6b 9dbd 0265 cbbd be17 383c
000002b0: 8fe8 583c 1014 653d 3124 213e 4006 4ebd
000002c0: 74e8 8ebc 4a7c bebd f00d c33c 2bfb 8d3d
000002d0: 580c 12be a66b 1c3e e6c4 2bbe 5fa1 e83c
000002e0: ec62 8b3d 1b22 2dbe 4fd4 5d3e 8046 ba3d
000002f0: 5a5d 0fba 4696 253e 9109 2fbe d98d 393e
00000300: f982 963d 5999 96be c110 9b3c 8150 0dbd
00000310: b3a6 e2be a977 ebbc db47 f83d 2e08 8b3e
00000320: 0e39 b0bd 0230 f0bd c5be c4bd e564 8abe
00000330: ddb2 97bd a22c 2cbd 219f dbbc a5ab ab3c
00000340: 56e6 38be a783 423d 55cc 743d aebf 6abe
00000350: bcdd 613c 1748 8ebe 547b c7ba 936d cebc
00000360: d7db 263d e52e 16be af11 853d 451b a1bd
00000370: f74f 4b3c 9d02 f4be 433b 4b3e a29c dc3b
00000380: f423 ecbc e967 2d3e 62d3 bcbb c8c7 233e
00000390: 44ea b4bd 0356 5bbe 6e8f 183f edfb 093e
000003a0: 47f9 5f3d 8cc1 8b3d 75d1 523e 1f83 e6bd
000003b0: 5b81 cd3d 96c9 803c 8aee afbe 958d 84be
000003c0: fd33 b8ba 4e70 a4be f6d7 34be 4e30 df3d
000003d0: 83dc b53d 851e 1a3d 8ab6 183e 7f51 913b
000003e0: 7682 2f3d a0f6 7dbe 5f9b adbe 65a2 3f3d
000003f0: bb2d 67bd 9b0f 29be 616d 92be 52f3 8fbe

fc2.bias f4 [64]
-0.12496583 0.030385459 0.30738288 0.037692983 0.1561317 -0.18361348 -0.100409515 0.028798724
0.13710895 0.44053861 -0.08815643 0.27386293 0.28937986 -0.09630435 0.04479489 0.0019165385
-0.022022538 0.0096827615 -0.09954876 0.18548818 0.13884076 0.4207464 -0.11128518 -0.16379656
-0.08778456 -0.15379332 -0.0062813754 -0.1270811 0.04020741 0.2393124 0.07225353 -0.0035942313
-0.17899662 0.105003715 0.033814397 -0.024845172 -0.07507989 -0.15157193 0.44954577 -0.012294653
-0.054962847 0.50752217 0.33061847 0.0062779905 0.002290981 -0.113081455 0.28123778 -0.029412832
0.12118321 -0.030646985 -0.12942575 0.43060797 0.04628794 -0.12646683 -0.12921077 -0.037124768
-0.14445639 -0.0093348315 0.021220855 -0.019351933 -0.054936726 0.35497475 0.061425608 -0.047768984
00000000: 16ee ffbd edea f83c 4a61 9d3e f563 1a3d
00000010: fde0 1f3e 2c05 3cbe 81a3 cdbd 4deb eb3c
00000020: 4a66 0c3e 478e e13e 5c8b b4bd c337 8c3e
00000030: 9929 943e 373b c5bd d97a 373d 5c34 fb3a
00000040: 9c68 b4bc 72a4 1e3c 38e0 cbbd 9df0 3d3e
00000050: 462c 0e3e 126c d73e 7ce9 e3bd 49ba 27be
00000060: 64c8 b3bd ff7b 1dbe ffd3 cdbb 8c21 02be
00000070: 86b0 243d 4f0e 753e a9f9 933d 328d 6bbb
00000080: e44a 37be 300c d73d f780 0a3d 1a88 cbbc
00000090: 7cc3 99bd ac35 1bbe dd2a e63e 836f 49bc
000000a0: b920 61bd f9ec 013f d346 a93e 9ab7 cd3b
000000b0: 4824 163b 4097 e7bd 66fe 8f3e 2ef3 f0bc
000000c0: e72e f83d 630f fbbc 2f88 04be a678 dc3e
000000d0: 6c98 3d3d 8580 01be d44f 04be 2410 18bd
000000e0: 60ec 13be 1ff1 18bc 5cd7 ad3c f287 9ebc
000000f0: 5505 61bd 40bf b53e 6b99 7b3d 69a9 43bd

fc3.weight f4 [4, 64]
-0.32568938 0.1834717 0.2095159 0.18994698 0.047531676 -0.2302383 0.22739805 -0.2089096
0.24133676 0.117356166 -0.17584491 0.24416938 0.03219886 -0.056690272 0.2814929 -0.30463573
-0.22910245 0.12425425 0.030167094 0.20608543 0.042141803 0.23563053 0.025205981 -0.16476788
-0.32778144 -0.26937154 -0.22082934 -0.39212924 0.43116882 0.41510335 -0.54226077 0.16511154
-0.16788521 0.20505182 0.3089527 -0.39229825 0.16801536 -0.30755922 0.16649376 0.20230065
0.54088956 0.14567988 0.13046846 0.053891852 -0.04260796 0.09333478 0.20170249 0.047566377
0.006178341 0.07653783 -0.19049211 0.21730345 0.52076936 -0.10143672 -0.2352094 0.3565054
-0.28828627 0.17901033 0.35979906 0.4439512 0.03145932 0.217604 0.09403485 0.36542955
-0.08851836 0.15796295 0.21910179 0.46611512 0.067498244 0.023973558 0.21841715 -0.07714841
0.14932813 0.17977877 0.047653466 0.17890798 0.074867226 -0.02774041 0.3042025 0.022892877
-0.08682224 0.07627516 -0.25997043 0.15546975 0.14488207 0.26048696 -0.34575298 -0.22113603
-0.11778174 -0.22015345 -0.19386281 -0.03421165 0.48285225 0.22571033 0.19945423 0.23008302
-0.078953 0.14678338 0.36269933 0.04790886 0.3150684 -0.20613419 0.17632087 0.17517453
0.55799294 0.19062318 0.061797794 0.24136297 0.116835885 0.11017534 0.17175317 0.13276362
0.18274477 0.07221873 -0.1496779 0.08484891 0.44350898 0.11928522 0.13933681 0.2600197
-0.17624275 0.14176118 0.31269166 0.41877857 -0.19427209 0.028246606 0.11398582 0.007812763
0.06315144 0.20849817 0.22850975 0.55284655 0.19661866 0.16311598 0.22965336 0.12152376
0.16201977 0.12793238 -0.14088646 0.18754944 0.1622343 0.05362085 0.2317766 0.12623501
0.2058067 0.1279854 -0.45633122 0.09939825 0.120443456 0.31264523 -0.46392098 -0.0739614
-0.028046176 0.036714375 -0.07592328 -0.43073824 0.47372386 0.084555335 0.038140457 0.0068510068
-0.36086315 0.09263138 0.40133357 0.18899074 0.198754 -0.36340174 0.17718996 0.21925326
0.62764263 0.17095274 0.2152673 0.35180172 0.04470874 -0.0036801156 0.16554494 0.27093175
0.23199178 0.021318782 -0.13678898 0.21508567 -0.21472135 0.21999797 -0.13579446 0.4249986
-0.26573938 -0.007263535 0.4115793 0.4142144 -0.32726476 0.20080246 -0.15019415 0.21605814
-0.47884423 0.34266758 0.16796423 -0.20246412 0.052936573 0.3583375 0.30108398 -0.04994256
0.22625673 0.23087086 -0.11002043 0.106587246 0.21724504 0.2825124 0.5901507 -0.27811357
-0.037838418 0.20031033 0.120824315 0.17007309 -0.010361765 0.24507809 -0.3210969 -0.45172077
0.02091876 -0.2333494 -0.19433215 0.2609373 0.5186815 0.0326857 -0.17184864 0.19814342
-0.0983064 0.31337678 0.15014507 0.059837904 -0.21425816 -0.15950601 0.22362295 0.20039625
0.4170338 0.2387987 0.22450627 0.13879523 0.22447014 -0.17712243 0.09694199 0.14088465
0.22346918 -0.057841238 0.051722683 0.098951496 0.25785503 -0.12833717 0.33748135 0.24072441
-0.45764777 0.010921116 -0.12969752 0.1528853 -0.13908306 0.081739545 -0.116457485 0.6686955
00000000: c2c0 a6be 01e0 3b3e 568b 563e 7681 423e
00000010: 93b0 423d 97c3 6bbe 09db 683e 66ec 55be
00000020: fc20 773e 6e58 f03d b010 34be 8a07 7a3e
00000030: f4e2 033d 0f34 68bd d61f 903e 37f9 9bbe
00000040: d599 6abe 0379 fe3d fb20 f73c 0f08 533e
00000050: e29c 2c3d 2149 713e c67c ce3c e9b8 28be
00000060: f8d2 a7be 11eb 89be 1621 62be 2ac5 c8be
00000070: 29c2 dc3e 6d88 d43e 9ad1 0abf 0013 293e
00000080: 1aea 2bbe 1bf9 513e 0c2f 9e3e 51db c8be
00000090: 380c 2c3e 6778 9dbe 577d 2a3e e727 4f3e
000000a0: bd77 0a3f 1b2d 153e 8699 053e b4bd 5c3d
000000b0: af85 2ebd 4e26 bf3d 198b 4e3e f6d4 423d
000000c0: ae73 ca3b debf 9c3d 5d10 43be cc84 5e3e
000000d0: 2451 053f 0ebe cfbd bcda 70be e087 b63e
000000e0: 429a 93be 7c4e 373e 9537 b83e 924d e33e
000000f0: 7ddb 003d 95d3 5e3e 5895 c03d 9519 bb3e
00000100: 1d49 b5bd 0ac1 213e 385c 603e a4a6 ee3e
00000110: 853c 8a3d 3264 c43c bfa8 5f3e fcff 9dbd
00000120: 79e9 183e ed17 383e 4830 433d a733 373e
00000130: fd53 993d db3f e3bc 6ec0 9b3e d889 bb3c
00000140: dccf b1bd 2736 9c3d d81a 85be 7633 1f3e
00000150: f75b 143e 8c5e 853e 8906 b1be 7c71 62be
00000160: 8e37 f1bd e86f 61be f983 46be 8421 0cbd
00000170: 6938 f73e 9c20 673e bb3d 4c3e e29a 6b3e
00000180: 1cb2 a1bd 624e 163e bab3 b93e 153c 443d
00000190: a550 a13e d714 53be 758d 343e f460 333e
000001a0: a0d8 0e3f b932 433e af1f 7d3d db27 773e
000001b0: a747 ef3d 9ca3 e13d 10e0 2f3e 30f3 073e
000001c0: 7221 3b3e 6ae7 933d 2a45 19be 44c5 ad3d
000001d0: 9c13 e33e cf4b f43d 4fae 0e3e 4d21 853e
000001e0: fb78 34be d829 113e 1f19 a03e 256a d63e
000001f0: 43ef 46be 6d65 e73c 6671 e93d 1a01 003c
00000200: 8b55 813d 8b80 553e 76fe 693e 5a87 0d3f
00000210: 6756 493e e007 273e 402a 6b3e 73e1 f83d
00000220: 83e8 253e b500 033e 8a44 10be f60c 403e
00000230: c020 263e 89a1 5b3d d856 6d3e c043 013e
00000240: febe 523e 9b0e 033e 3fa4 e9be 4f91 cb3d
00000250: 0fab f63d 0913 a03e 0d87 edbe 1379 97bd
00000260: 18c1 e5bc d061 163d aa7d 9bbd b989 dcbe
00000270: ef8b f23e 592b ad3d 2b39 1c3d 697e e03b
00000280: 0ec3 b8be 85b5 bd3d 987b cd3e ca86 413e
00000290: 2b86 4b3e cb0f babe 4971 353e ed83 603e
000002a0: 30ad 203f 3c0e 2f3e 086f 5c3e 5b1f b43e
000002b0: 8320 373d 182e 71bb 9d84 293e 91b7 8a3e
000002c0: 418f 6d3e baa4 ae3c 6912 0cbe 6b3f 5c3e
000002d0: eadf 5bbe 2647 613e b40d 0bbe 6b99 d93e
000002e0: fe0e 88be f302 eebb 86ba d23e e913 d43e
000002f0: 3f8f a7be 299f 4d3e 7fcc 19be 583e 5d3e
00000300: 122b f5be 2072 af3e d1fe 2b3e c152 4fbe
00000310: 05d4 583d 0378 b73e ae27 9a3e 9290 4cbd
00000320: d8af 673e 6969 6c3e 6452 e1bd 6a4a da3d
00000330: 7c75 5e3e 77a5 903e 1e14 173f e764 8ebe
00000340: 75fc 1abd 271e 4d3e bd72 f73d a427 2e3e
00000350: 64c4 29bc c0f5 7a3e d066 a4be f247 e7be
00000360: d25d ab3c 25f3 6ebe 02ff 46be 9399 853e
00000370: 50c8 043f 71e1 053d 17f9 2fbe 1ce6 4a3e
00000380: de54 c9bd ec72 a03e a1bf 193e 9718 753d
00000390: 7e66 5bbe 8b55 23be 6afd 643e ad34 4d3e
000003a0: 7485 d53e a587 743e f9e4 653e 5620 0e3e
000003b0: 80db 653e 955f 35be 8689 c63d 1144 103e
000003c0: 1bd5 643e efea 6cbd 2adb 533d 15a7 ca3d
000003d0: 9305 843e d26a 03be 5bca ac3e 7680 763e
000003e0: cf50 eabe 7bee 323c 6dcf 04be f78d 1c3e
000003f0: ca6b 0ebe 1067 a73d 4381 eebd a12f 2b3f

fc3.bias f4 [4]
0.25208104 0.2715638 0.16539648 0.21003036
00000000: c410 813e 690a 8b3e b25d 293e 3312 573e
